checkpoint_actor.pth (torch_old, 554472 bytes, 18 tensors)

fc1.weight f4 [400, 33]
000000 29 c8 20 3d e5 e2 26 3e d0 41 b5 be 1b f3 5b bc
       0.039253388 0.16297491 -0.35401773 -0.01342466
000010 f8 7d 89 3e ca c9 85 3e a0 cf 1d be 3d 53 4c 3d
       0.2685392 0.26130515 -0.15411234 0.04988407
000020 23 82 c7 3d 6b 86 b6 3c cd 6d 54 bd 0f 6a 2a bc
       0.097416185 0.022280892 -0.051862527 -0.010401263
000030 05 cf 52 3e 3b 06 fb be 04 7b d9 3c ca c3 c2 3e
       0.20586784 -0.4902819 0.026547916 0.3804
000040 4e 11 83 be 27 52 06 3d ae 0a e8 bc 2e d3 7c bd
       -0.2559914 0.03279319 -0.028325405 -0.061724834
000050 27 d2 3a 3d 51 60 9b bd 0c bc d3 3d 43 2c 86 3c
       0.045610573 -0.0758673 0.103386015 0.016378528
000060 e0 75 13 be 55 75 be 3d 92 aa d6 3e fb 18 0e 3f
       -0.14400434 0.09299723 0.4192701 0.5550687
000070 b2 1e 86 be 11 ab 1f bf b4 c4 22 3f e0 b4 2a 3f
       -0.26195294 -0.623704 0.63581395 0.66682243
000080 0a 0f bf ba 10 0c 9a 3e ad 28 72 3e f4 19 15 bf
       -0.0014576626 0.30087328 0.23648329 -0.58242726
000090 58 d9 a4 3e ce 59 ee bd 0d eb 0b 3f 03 84 05 bf
       0.3219707 -0.11638223 0.54655534 -0.5215456
0000a0 15 d7 87 3d e8 41 b4 be 6a aa b4 bd b9 e1 1c 3e
       0.066328205 -0.35206532 -0.088215664 0.15320481
0000b0 e4 35 b8 3e e6 57 8a be 37 0e 8c 3d 61 98 fc 3d
       0.35978615 -0.27020186 0.06838649 0.123337515
0000c0 d9 6e d3 be ae 7c 20 bd ed ee 9e bd 84 85 7b bc
       -0.41295508 -0.039181404 -0.07760415 -0.015351657
0000d0 ff 93 73 3d 4d be 3c bd 9f 75 8a be 45 af 94 3e
       0.059467312 -0.046079922 -0.27042863 0.2903997
0000e0 fb 84 67 bd 52 a7 84 3e d3 b2 5c 3e b2 96 50 3b
       -0.056523304 0.25908905 0.21552591 0.0031828103
0000f0 7d 51 c2 3e 8d 52 10 3f 79 1b a8 be 22 c8 c8 3e
       0.37952796 0.5637596 -0.3283346 0.3921519
000100 5c 91 bf 3e c6 76 73 bd b7 0d 74 bd 61 dc 94 3d
       0.37415588 -0.059439443 -0.059583392 0.072685964
000110 d1 c2 b9 3e ed 37 b4 be 5c 14 af be b7 40 80 be
       0.36281446 -0.35198918 -0.3419522 -0.25049374
000120 45 42 88 3d 45 63 09 be e2 94 99 bd cf c2 01 3d
       0.06653265 -0.13416775 -0.074991 0.031679925
000130 56 a5 b9 3d 9e 2d 12 be e1 c8 70 3e 4a df 85 bd
       0.090647385 -0.14275214 0.23514129 -0.0653673
000140 38 bd 37 3e cc 49 66 be 0f 22 12 bd 4e 84 cd 3b
       0.17943275 -0.22489089 -0.035677012 0.0062718755
000150 29 08 0a bc ee 2a 44 3d 82 0c af 3d 1e f1 ab bd
       -0.008424797 0.047892503 0.085473076 -0.08395599
000160 e9 c4 67 bd eb 62 b7 3e 24 6c 18 bd 15 82 cc 3e
       -0.056584273 0.35817656 -0.037212506 0.39942995
000170 83 bf 10 3f 80 de b1 3e 1d 55 3f be 70 c5 c3 be
       0.56542224 0.34740067 -0.18684812 -0.3823657
000180 2a 84 cd 3e 05 36 d6 3e 6d 2b 15 bf a9 fc 1a bf
       0.40139896 0.4183809 -0.5826939 -0.6054178
000190 39 59 f2 bd 4b e5 44 be 9c d7 9e 3d a7 f4 06 bf
       -0.11833424 -0.19228093 0.07755968 -0.5271706
0001a0 ca 1e 06 bc 23 9b db 3d 55 8f 3f be d5 70 81 bb
       -0.008186052 0.10722949 -0.1870702 -0.003950218
0001b0 27 e0 b5 be 46 14 e5 be 64 db 19 bd 20 78 f7 3d
       -0.35522577 -0.4474203 -0.037562743 0.12083459
0001c0 a1 56 35 3e 3d f1 d0 bc 79 6c 71 3e 98 a0 f8 be
       0.17708828 -0.025505656 0.23576535 -0.48560023
0001d0 c2 34 6b be 6b a1 6c 3e 3d 23 ac be 83 4f 93 3e
       -0.22969344 0.23108451 -0.33620635 0.287716
0001e0 10 c4 d6 bd 60 52 e9 bd 5f 90 95 3e a8 3e 24 3e
       -0.10486615 -0.11392665 0.2921171 0.16039526
0001f0 8e d9 ea 3e 56 e6 49 3c a8 77 44 3e 51 1d 4a 3d
       0.45869106 0.012322983 0.1918627 0.049344365
000200 3f 5c 88 be 0d c0 83 3e 95 21 5e 3e df 43 07 bf
       -0.26632878 0.2573246 0.21692498 -0.5283794
000210 b4 99 55 be b9 fa a1 3e 54 54 8c 3e 4e 8d 41 bf
       -0.20859414 0.316366 0.27408087 -0.7560624
000220 6d c9 03 3e cb 94 c2 3d 23 43 ca b8 e0 32 06 bf
       0.12869807 0.09501036 -9.644616e-05 -0.5242138
000230 38 a1 18 be 8d 8e 75 be cd 2b 0d be d7 cc dc 3e
       -0.1490525 -0.2398016 -0.1378624 0.4312503
000240 04 c8 13 3f a9 60 ce 3d 87 be 3b 3d 16 8b 88 3b
       0.57727075 0.1007703 0.045835998 0.004166971
000250 73 c4 b7 bd 9e 07 23 3e f6 d0 48 3e a2 a4 61 be
       -0.089730166 0.15920874 0.19610962 -0.22035459
000260 b3 85 84 be 89 50 ab be d4 3d 9f bd bb 67 09 be
       -0.25883254 -0.3345988 -0.07775465 -0.13418476
000270 13 67 86 3e 66 b8 b7 3e d3 6d 50 3e 12 a6 96 3e
       0.26250514 0.35882872 0.20354395 0.29423577
000280 a6 7b 93 be 04 ec b8 be 44 e6 ae 3e e0 c5 c4 3e
       -0.28805274 -0.36117566 0.34160054 0.38432217
000290 6e b3 22 3f b5 99 6b 3e f8 4c 11 3d fa 80 07 3e
       0.6355504 0.23007853 0.035473794 0.13232794
0002a0 99 92 0e 3c 16 bf 11 bb 58 61 d1 be f9 32 a1 bd
       0.008701944 -0.002223914 -0.4089458 -0.078710504
0002b0 21 ef cc be 1d d4 4b 3c a6 92 06 be 90 d1 80 bd
       -0.4002619 0.0124407085 -0.1314188 -0.06289971
0002c0 87 3b bd bc 15 8d 7b 3e ee a3 b4 3e 6a 44 40 be
       -0.023099674 0.24565537 0.35281318 -0.18776098
0002d0 04 35 98 3e c4 9e 85 bc d8 63 d7 be d2 eb 97 3e
       0.29727948 -0.016311057 -0.42068362 0.29672104
0002e0 64 af ba 3d 7a 82 96 be 07 5e bc 3c 39 98 ad be
       0.09115484 -0.2939642 0.022994054 -0.339052
0002f0 85 53 d8 bd 43 9b be 3d 7b 0c f4 3e 29 00 fd 3d
       -0.10562805 0.093069576 0.47665772 0.12353546
000300 65 f5 87 3e 40 e4 19 bf 9d ef 9a be 5f 69 82 3e
       0.2655441 -0.60113907 -0.30260935 0.25471017
000310 d5 1e 88 3e f8 41 04 3f 8a 4c c8 bd e5 24 67 be
       0.26586023 0.5166316 -0.09780224 -0.22572668
000320 e5 88 da 3e 58 b6 f6 3d b2 2e 0a be f2 d9 50 bd
       0.42682567 0.12046498 -0.13494375 -0.0509891
000330 06 d8 84 3e 37 63 a1 bd 8f 4a 91 bd 0e 61 02 3e
       0.25946063 -0.07880252 -0.07094299 0.12732336
000340 96 61 11 3e f1 46 84 3c ea 2f 79 bc 85 d5 94 3e
       0.14197382 0.016147109 -0.0152091775 0.29069152
000350 28 73 4e 3e 6b be df be a1 aa d8 bd 6b 95 09 be
       0.20161116 -0.43699965 -0.1057942 -0.13435905
000360 9f 1b 82 bc 02 07 ff bc ce b9 1d bc 5a 95 8d 3b
       -0.015882311 -0.031131271 -0.009626819 0.0043207826
000370 56 1e d8 bd aa fe 07 3f b0 14 a2 3d 8d e3 82 be
       -0.10552661 0.5312296 0.07914102 -0.25564232
000380 be 19 a2 be cf 01 59 3e 11 8c 14 3f f6 fa 92 be
       -0.31660265 0.21192096 0.58026224 -0.28707093
000390 e4 bd 91 3e 5c 12 90 3e 71 08 fc 3e 20 f9 75 3e
       0.28465188 0.28139007 0.4922519 0.24020815
0003a0 c0 32 14 bd 41 d8 cb bd 62 d6 96 3e e8 57 d8 3d
       -0.03618121 -0.099533565 0.29460436 0.10563642
0003b0 bf 2a e6 3e 95 ae 36 3e 1f c6 d4 3e 35 59 ba be
       0.44954488 0.17840035 0.41557404 -0.36396185
0003c0 d8 c3 d9 3e fb 9d b7 3e 5a 88 cd be cb ef bd be
       0.4253223 0.35862717 -0.4014309 -0.3709701
0003d0 cf 7d ac be ff 43 a2 be d5 b3 86 be 85 60 36 3e
       -0.33689734 -0.31692502 -0.26309076 0.17810257
0003e0 7f 78 43 3d fb 99 ee 3d fe 2e 00 3d a4 50 1b 3e
       0.047722336 0.11650463 0.031294815 0.1516748
0003f0 a1 5b 54 3e 2d 81 45 be dc ae 59 3e 53 ee 1d bf
       0.20738079 -0.19287558 0.2125811 -0.6169178

fc1.bias f4 [400]
000000 25 17 0b bf dd ee 81 be 8d a0 8e be 3e 30 dd bd
       -0.5433219 -0.2537755 -0.27856866 -0.10800217
000010 b2 38 9b be 4a 66 15 be c1 67 1f be 1e db d4 bd
       -0.30316693 -0.14589801 -0.15566923 -0.10393356
000020 6c 8d 9c 3e d3 d8 13 3e 56 b2 b1 be 30 73 00 3f
       0.30576646 0.1443818 -0.34706372 0.5017576
000030 27 cc 8c 3e 66 80 f1 be 95 e9 a9 be 94 96 25 be
       0.27499506 -0.47168273 -0.3318602 -0.16170722
000040 ec d2 df 3e 80 c6 8f be 94 66 c9 be 6b 30 d7 bd
       0.43715608 -0.2808113 -0.39336073 -0.10507282
000050 14 10 16 bf a1 b6 ed be 4e 15 c3 bc 87 fd 00 bf
       -0.58618283 -0.46428397 -0.02381387 -0.5038685
000060 fe 8f 93 be 55 95 0e bf 09 b9 9a be c7 d5 52 be
       -0.28820795 -0.5569661 -0.30219296 -0.20589362
000070 2b 4a 25 3e 95 e4 9e be 51 3a 34 bd 73 c5 c0 be
       0.16141574 -0.3103377 -0.044000927 -0.37650642
000080 0b f8 d5 3d 0a f8 b6 be 1a f8 90 3e 28 a7 af be
       0.10447701 -0.35736114 0.28314286 -0.34307218
000090 49 15 1f be 0f a5 83 bb 25 28 7a bc a7 dd 0f bd
       -0.15535463 -0.0040174793 -0.01526836 -0.035123494
0000a0 01 a8 7f be 6b 65 bd be 43 d3 be be 3d dd 82 be
       -0.24966432 -0.36991438 -0.37270555 -0.25559416
0000b0 68 d7 3f bf 1e 6d 29 bf f0 6d dc be 2b d1 d0 3a
       -0.7493806 -0.66182125 -0.43052626 0.0015931478
0000c0 c9 65 92 be 58 b1 d0 be 4c bd ce be 4f 92 02 bf
       -0.2859328 -0.40760303 -0.40378797 -0.510045
0000d0 62 08 88 be 6a c7 cb 3b 63 bc a0 be b6 98 5b bd
       -0.26568896 0.0062188404 -0.31393728 -0.053612433
0000e0 59 05 00 3d d2 62 b5 3c 2f c3 5d be f4 b6 06 bf
       0.0312551 0.022141848 -0.21656488 -0.52622914
0000f0 a2 53 31 be c3 d6 96 bd 3e a5 ca be 8d 93 a0 be
       -0.1731706 -0.07365181 -0.39579195 -0.31362572
000100 e9 8a 9f be 67 b2 6f be 14 4b 22 bf 77 91 96 be
       -0.31160668 -0.23407899 -0.6339581 -0.29407856
000110 04 56 46 bd c1 01 f7 bd ce 62 8f be 8b 7c eb be
       -0.048421875 -0.120608814 -0.2800507 -0.45993456
000120 49 78 bd be 05 3b 86 be d5 e0 78 be f2 65 a2 be
       -0.37005833 -0.26216903 -0.24304517 -0.31718403
000130 b7 72 08 bf ed 24 e3 be d6 bf 63 be 34 12 95 be
       -0.5330004 -0.4436411 -0.22241148 -0.2911545
000140 d9 7d 08 bf 35 26 e4 bd 4f b4 d3 be d4 d6 e0 be
       -0.5331703 -0.111401 -0.41348502 -0.439139
000150 69 9b b9 be 3e 7c f5 be 86 eb 09 bf 11 63 ae be
       -0.3625138 -0.47946352 -0.53875005 -0.34059957
000160 7e 28 35 3e 18 8c b9 be 29 bb c7 be 67 61 9f be
       0.17691228 -0.36239696 -0.3900998 -0.31129
000170 54 1c 99 bd d1 c3 28 bf b1 56 0e bf 21 d4 99 be
       -0.07476106 -0.6592379 -0.5560103 -0.30044654
000180 2d 1a 2f be f6 cf cd be 1b 80 62 be 91 d6 f1 be
       -0.17099829 -0.40197724 -0.22119181 -0.47234014
000190 67 bf b2 be 6d 91 91 bc dc 7e 0c bf 6c 6d 1b be
       -0.34911653 -0.01776954 -0.5488107 -0.1517846
0001a0 40 9e 6b be f3 cf 2a bf ab 8c cd be 91 87 de be
       -0.23009586 -0.66723555 -0.40146384 -0.43462804
0001b0 08 50 48 bf 66 81 ae be a3 7e 89 bc 32 ba 72 be
       -0.7824712 -0.34083098 -0.016784018 -0.2370384
0001c0 45 08 b1 bd 4a 32 cc be 52 03 97 36 e5 ae 1d bf
       -0.086441554 -0.39882118 4.500537e-06 -0.6159499
0001d0 57 5a c0 be 0e 63 84 3d 1b 65 eb be 04 12 c8 be
       -0.37568924 0.06464206 -0.45975575 -0.39076245
0001e0 23 7b 29 be 89 5c 03 bf bd db f5 be 04 57 32 bc
       -0.16550879 -0.5131307 -0.4801921 -0.010885004
0001f0 00 56 05 bf 1c b3 c0 be 85 34 07 bf 87 8f 19 3f
       -0.5208435 -0.3763665 -0.52814513 0.5998463
000200 1c f5 ff be 2d af 4f 3e 0e 01 03 be 46 00 e0 be
       -0.4999169 0.20281668 -0.12793371 -0.4375021
000210 5e d7 cd be 0d 12 40 be a6 ae 87 bd d5 ff 94 be
       -0.40203375 -0.18756886 -0.066251084 -0.29101434
000220 ad 30 e2 be c8 52 26 be e3 06 24 3d 6b 76 a5 be
       -0.44177762 -0.16242516 0.04004563 -0.32316908
000230 c0 a2 dd bd 99 e2 de 3c 61 79 a4 be b1 fb 31 3d
       -0.10822058 0.02720766 -0.32123855 0.043452922
000240 7f 85 aa be 47 72 dc be 54 f6 84 be f9 b8 9f 3c
       -0.33304974 -0.43055937 -0.25969183 0.019497382
000250 9c 79 b5 be b9 a1 2c be de 62 93 be 6f ea 72 be
       -0.35444343 -0.16858567 -0.28786367 -0.23722242
000260 40 d9 62 be fc c9 e7 be 63 b5 d7 be 66 eb 7d bd
       -0.22153187 -0.4527129 -0.42130575 -0.06199207
000270 76 d1 1f bf 96 ee 90 be e3 c9 8a be 3e de 54 be
       -0.6242899 -0.28307027 -0.27107152 -0.20787904
000280 95 b7 91 be d2 73 b1 be 5f 5b 0d be 9d 8d 01 bf
       -0.28460374 -0.34658676 -0.13804387 -0.5060671
000290 ac 26 80 3d fb fb 89 be a4 7f 37 3d b2 fa ec be
       0.06257376 -0.26950058 0.044799462 -0.46285015
0002a0 c1 9e 1e bf 9a c7 80 be fd 57 53 be 4a aa 10 be
       -0.6196099 -0.25152284 -0.20639034 -0.1412746
0002b0 bf 92 99 be 49 d5 b6 be 16 82 a9 be b9 17 94 be
       -0.2999477 -0.357096 -0.3310706 -0.2892435
0002c0 75 46 a3 be 33 36 27 be 97 2f 21 be 0b df 14 be
       -0.31889692 -0.16329269 -0.1574081 -0.14538209
0002d0 20 9b c2 be 4c 02 fd be 9a 7c d3 3d 6f bf f6 bd
       -0.38008976 -0.49415815 0.103265 -0.12048232
0002e0 44 8c ed bd f7 fd 1f be 59 29 da be 44 14 0d be
       -0.11599019 -0.15624224 -0.4260967 -0.13777262
0002f0 07 48 80 be fb 57 98 be 6d 7b 07 bf 72 2a e3 be
       -0.25054953 -0.29754624 -0.5292271 -0.4436832
000300 53 6a f1 be 8e da a0 be 4f 9d fd be a2 86 94 be
       -0.4715143 -0.31416744 -0.4953408 -0.29008967
000310 6e c7 b0 be 7b 3e a8 be fe a1 e7 bd c6 ba 8b be
       -0.34527153 -0.3286017 -0.113101944 -0.27290934
000320 3d 74 15 3e 6e 60 3e be c2 59 50 bd d1 a9 a3 bd
       0.14595123 -0.18591473 -0.05086685 -0.07991374
000330 a3 14 80 be 03 b6 b9 be 2e a0 ad be 7b 8c cb be
       -0.25015745 -0.36271676 -0.3391127 -0.39755616
000340 6b 8e 28 bf 7c 5c e6 bd f9 7d 19 3e 0b 21 bd 3c
       -0.6584231 -0.11248109 0.14989461 0.023087045
000350 17 72 d2 be b0 cd 10 bf b0 00 b0 be a5 9c be be
       -0.4110267 -0.56563854 -0.34375525 -0.37228885
000360 27 5d 3d be 4a 3c 38 be 8b 0f c3 be 39 cd 4d be
       -0.18492566 -0.17991748 -0.38097796 -0.20097817
000370 9f 7a 5a bd 06 ff d5 be 25 35 02 bf 5a ec ba bd
       -0.053339597 -0.4179613 -0.5086234 -0.09127112
000380 97 e3 fa bd d3 63 63 be e6 50 74 be 64 ed c0 be
       -0.122504406 -0.22206049 -0.23858985 -0.37681115
000390 09 7e 19 bf 49 a0 d0 be fd 4d e7 b9 90 0a e6 be
       -0.5995794 -0.40747288 -0.0004411786 -0.44929934
0003a0 39 0a 60 be 1c 0b e3 bc 78 fd f5 be 7c ee 95 be
       -0.218789 -0.027715258 -0.48044944 -0.29283512
0003b0 c8 a3 d5 be d4 11 9c be f7 e4 84 be 39 01 8c be
       -0.41726518 -0.30482352 -0.25955936 -0.27344683
0003c0 00 d6 6e bd 4e 41 56 be 75 6b 5c be b3 a8 95 be
       -0.058309555 -0.2092335 -0.21525367 -0.2923027
0003d0 25 ce b5 3d c4 87 a6 be be f8 bc be ae e5 50 be
       0.088772096 -0.32525456 -0.36908525 -0.20400116
0003e0 29 41 99 be 3a f6 d2 bd e1 a2 41 bd 96 f9 a6 be
       -0.29932526 -0.1030087 -0.047274474 -0.32612294
0003f0 9d e1 05 be 8a 21 d3 be 5c ca ce be eb 3d 8f 3c
       -0.13074346 -0.41236526 -0.40388763 0.01748558

fc2.weight f4 [300, 400]
000000 f0 76 90 be 1a a5 48 be e2 61 4b 3e 7a 29 e7 3d
       -0.28215742 -0.19594231 0.19861558 0.11287208
000010 bc 8a 43 3e b2 0c 08 3e 8d 38 d2 bd e9 43 86 bd
       0.19095892 0.13286093 -0.102646925 -0.065559216
000020 a6 05 a7 be 07 7a bd 3d 6f 26 e4 bd 4b f8 36 be
       -0.32621497 0.092517905 -0.11140143 -0.17868154
000030 74 78 1c be 4d c9 81 bd e8 94 e0 3d 58 1f 1c be
       -0.15280324 -0.06337223 0.109659016 -0.15246332
000040 f6 c8 2b be 33 03 65 bd 1b eb 02 3e f1 21 c6 3c
       -0.1677588 -0.055911254 0.12784998 0.024186106
000050 01 21 2b 3d 97 0f c6 3e b6 cf 8d 3e 08 ab c2 be
       0.04177952 0.3868377 0.27697533 -0.3802111
000060 39 a4 a3 bd 87 3f 4d 3d bb 0f 6d be 9e f5 e3 bd
       -0.07990307 0.050109413 -0.23150532 -0.11130832
000070 ac ce ba bd 01 a7 80 bd 71 8c e8 bc cb 23 9d bd
       -0.09121451 -0.062818535 -0.02838728 -0.076728426
000080 70 8f 2e 3e fa 4a 09 be c1 97 41 be 61 8a 2a be
       0.17046905 -0.13407508 -0.18905546 -0.1665435
000090 f9 c1 c9 37 5c f2 b9 bd 02 4c 23 be 4e ed 0d be
       2.4051393e-05 -0.090794295 -0.15946963 -0.13860056
0000a0 59 cf 8a be ec a1 87 be aa bb 9b be bc cc 9c 3e
       -0.2711132 -0.26490724 -0.30416614 0.3062495
0000b0 38 d1 09 bf 12 57 5d 3d 5b 62 37 3d 9e eb 86 3e
       -0.5383487 0.054038115 0.044771533 0.26351637
0000c0 44 36 94 3d 37 6b 90 3d 3e 7f c7 3d 14 3b 9a 3e
       0.07236913 0.070516996 0.097410664 0.30123198
0000d0 11 ad 41 be 5c 1a 08 3d bb b4 25 3e 7d a7 d9 be
       -0.18913676 0.033228263 0.16182224 -0.42510596
0000e0 d8 a3 68 be b3 09 00 3e 39 b1 a6 bd 53 96 ba be
       -0.22718751 0.125037 -0.08139271 -0.36442813
0000f0 b8 76 bd 3d 63 3f 73 be 30 8a 26 be 13 e1 81 be
       0.092511594 -0.23754649 -0.16263652 -0.2536703
000100 5b 35 11 3e 03 c7 13 be 86 d6 f4 3d fd 10 4b be
       0.1418051 -0.14431386 0.119549796 -0.198307
000110 c9 1d 97 be 00 be 5b 3e 58 94 fe 3c 1b ea f0 bb
       -0.29514912 0.21459198 0.031076595 -0.0073521263
000120 bc be 14 3e 23 db 2d be dc 65 b0 3d 62 40 d5 3d
       0.14525884 -0.16978125 0.08613178 0.10412671
000130 f5 a7 59 be d7 fd 38 3e 8a 9e a1 be 8e 84 c6 3d
       -0.21255477 0.18065582 -0.31566268 0.096932516
000140 86 ce b8 3d 32 ab 1d be 8b b9 2d bd 63 8f dd bd
       0.09023766 -0.15397337 -0.042413276 -0.108183645
000150 a7 73 85 3c b3 40 67 be dd 80 fc 3d 3e e9 87 3e
       0.016290499 -0.22583275 0.12329266 0.26545137
000160 26 64 e5 bd 49 c2 b5 be 78 e4 e6 be e7 43 63 be
       -0.112007424 -0.3549979 -0.45096183 -0.22193871
000170 60 d5 1c bd d9 93 b3 be 19 23 f0 be 67 c3 55 be
       -0.038289428 -0.35073736 -0.46901777 -0.20875321
000180 ab 0f 89 bd 4e 32 91 be d7 d1 cc 3c 29 1b 7e bc
       -0.066924416 -0.28358692 0.025002403 -0.015509405
000190 07 0c 8d be 51 71 0e 3d 76 8f 77 3b e2 d3 3c 3e
       -0.2754824 0.034776036 0.0037774718 0.18440202
0001a0 01 93 69 be 6f 1d a4 3d 63 78 9b 3e 3b cb ff bd
       -0.22809984 0.080134265 0.30365285 -0.12489935
0001b0 10 da ac 3c 8f e9 1f be a1 65 10 3c ac 87 e2 3d
       0.021100074 -0.1561644 0.008813293 0.110610336
0001c0 bd 7e 11 be 03 a6 5d be fb 8e 85 3d 76 d6 45 3e
       -0.14208503 -0.2164536 0.06521412 0.19320092
0001d0 cf b6 da bd 58 74 b6 bd 60 50 42 3d e8 df e4 bd
       -0.10679399 -0.089089096 0.047439933 -0.11175519
0001e0 c2 58 bd bd 04 9d c8 bc 37 ef 5b 3e b2 31 2a 3e
       -0.09245445 -0.024488933 0.21477972 0.1662052
0001f0 62 51 8f bc 58 62 20 be 83 0d e0 3d a7 77 25 3d
       -0.017494861 -0.15662515 0.10940077 0.040397312
000200 ae 58 1b be f7 d5 05 3c 0d 0e 94 bc 41 2a 25 3e
       -0.15170547 0.008168689 -0.018073106 0.161294
000210 ad 24 4c 3e a3 3a c8 3d fe a3 39 be 41 b4 93 bc
       0.19935866 0.09776809 -0.18128964 -0.018030288
000220 4a 4b 9d bd be 6b b1 be 5d ff d7 3d 7c d9 86 bd
       -0.07680376 -0.34652513 0.105467536 -0.065844506
000230 20 30 6d bd 58 32 44 be 92 05 73 bd 89 cb bc bd
       -0.057907224 -0.1915983 -0.059331484 -0.09218509
000240 ac 19 ab bc c2 df 1a 3e 43 03 31 be 54 bb 73 be
       -0.020886265 0.1512442 -0.172864 -0.23801929
000250 7c f2 00 be 85 4e 67 be b6 4a 9c bd 17 e2 33 be
       -0.125925 -0.22588547 -0.076314375 -0.17566715
000260 fa 23 83 be 84 db 16 3e 3a f0 9d 3d e9 55 08 be
       -0.25613385 0.14732176 0.07711835 -0.13314022
000270 51 7b 54 be d3 cc 84 be 07 4e 4a be 0f 03 1c bd
       -0.20750166 -0.25937518 -0.19756328 -0.038088854
000280 ea 7a f7 3d fc 24 1e 3e 51 1c 53 3e 73 f7 e9 bc
       0.12083991 0.15443796 0.2061627 -0.028560376
000290 89 29 89 be 06 d7 b5 bd 43 73 d2 bd fe 86 be 3d
       -0.267895 -0.08878903 -0.10275891 0.093030915
0002a0 06 ed 0e be b8 34 46 bd 5b 4c c4 3c 73 5d cf bd
       -0.13957605 -0.04839012 0.02396219 -0.10125246
0002b0 9b 18 90 bc 51 f7 22 bd ef 0d 41 3e 8a 2d 26 3e
       -0.017589858 -0.03978664 0.18852971 0.1622831
0002c0 e8 f7 52 bc fa 53 61 bd e3 81 73 3e 6a 8d b5 be
       -0.012876488 -0.055011727 0.23780017 -0.35459453
0002d0 31 e5 b6 bd 1a 0d 94 be ea a9 de bc 83 21 de 3c
       -0.089304335 -0.28916246 -0.02718063 0.027115589
0002e0 dd 43 89 be 12 59 2e 3d 5d ff ec bd 71 0b 53 be
       -0.26809588 0.042565413 -0.11572144 -0.20609833
0002f0 fc 32 d8 3d d0 a5 2d 3e 89 9a 86 be c4 13 52 bd
       0.105565995 0.16957784 -0.26289776 -0.05128838
000300 d5 a6 9a 3d d7 26 59 bd bb fe 56 3e fc ab 2b be
       0.07551352 -0.053015556 0.2099561 -0.16764826
000310 66 96 8a be e5 17 d2 bc 65 83 04 3e 68 d4 54 3c
       -0.2706787 -0.02564616 0.12940748 0.012990095
000320 33 ca c3 be 38 97 66 be 01 89 9c bc 2a 67 f9 bc
       -0.38240203 -0.22518623 -0.019108297 -0.0304447
000330 b1 ea 6b be 2a 05 ce bd 29 a9 e7 bd 57 c0 12 3e
       -0.23038746 -0.10059579 -0.113115616 0.14331184
000340 1d 9d b3 3d c1 ac c6 3d bb a3 00 be 18 29 10 be
       0.08770201 0.09700919 -0.12562458 -0.14078176
000350 ca ec 29 be c8 45 18 3e 98 9b 50 3e 1b 57 72 3e
       -0.16594234 0.1487037 0.20371854 0.2366604
000360 0b 5e 42 be 99 df 59 be fb fb e5 3d 41 04 85 be
       -0.18981187 -0.21276702 0.11229702 -0.25979808
000370 fc 6d 3f bd e7 83 37 be 6c cd 25 3e 36 33 84 3e
       -0.04673575 -0.1792141 0.16191643 0.2582032
000380 10 4a 36 3d 25 0d 19 be fc 5a 54 be fe be f8 bd
       0.044504225 -0.1494642 -0.20737833 -0.12145804
000390 5d e6 fa bd 3b 07 f1 bd 66 f7 2e 3e 71 09 2d be
       -0.122509696 -0.11768957 0.17086563 -0.16898133
0003a0 d4 ac cb bd 8a 9f a0 be c5 e9 55 be 83 9c 15 bc
       -0.09945074 -0.3137172 -0.20889957 -0.009131554
0003b0 60 85 70 be 6b 7d 76 be b3 e4 19 bc a9 c6 a0 3e
       -0.23488379 -0.2407128 -0.009392905 0.31401566
0003c0 55 e6 08 3d f4 4a 9a be de 0b 6a 3e e4 2c 75 bd
       0.033422787 -0.3013531 0.2285609 -0.059857264
0003d0 41 99 99 3c 16 93 7a bd 33 78 14 be 7d 22 0a bf
       0.018749835 -0.06117543 -0.14498977 -0.53958875
0003e0 e7 54 b3 3d 4a 2e 08 3d 38 33 33 bd eb be 64 3b
       0.08756428 0.03324727 -0.043750018 0.0034903835
0003f0 61 5d f4 be 96 4b 5c 3e cb cf 9c 3d c9 a8 6d be
       -0.47727492 0.21513209 0.07656821 -0.23208918

fc2.bias f4 [300]
000000 45 5b c1 be b2 9a 50 bd 1e 63 fb 3e a8 52 06 bf
       -0.37764946 -0.05092878 0.49099058 -0.52469873
000010 fe 4a 83 3c e0 92 b6 be c9 4f a9 be 89 04 fc be
       0.01602697 -0.35658932 -0.33068684 -0.4922221
000020 fd f2 6f 3d 7e bb 83 be 61 62 3b bd e0 0a 8e be
       0.05858134 -0.25728983 -0.04574812 -0.27742672
000030 65 56 0d bf 1f 0c bb 3d 23 99 f2 bc 60 3f cc bd
       -0.5520995 0.09133171 -0.029614037 -0.09973025
000040 4b 38 d3 be b0 26 be 3c 2b 59 97 be 97 49 f2 be
       -0.41253886 0.023211807 -0.29560217 -0.4732177
000050 42 1c 2d be 43 f8 06 bf 30 a5 1b be af 8d 21 bf
       -0.16905311 -0.5272257 -0.15199733 -0.63106817
000060 a4 6b 8c bd ee cc a6 be c8 9e 28 be f8 8e 90 be
       -0.06856468 -0.32578224 -0.1646682 -0.28234076
000070 1f 25 5d be 97 1d e6 bd 4b 96 a4 bd 79 d8 3b 3e
       -0.21596192 -0.112361126 -0.080364786 0.18344297
000080 82 0b 8a 3e 70 36 60 be 7b 5b 96 be b2 f5 f3 3d
       0.26961905 -0.21895766 -0.2936667 0.11912097
000090 14 1b 86 be b3 7a 69 be 68 23 00 bf 94 41 af be
       -0.26192534 -0.22800712 -0.50054026 -0.3422972
0000a0 f5 80 95 be aa a4 6a be 5d f8 b0 be a5 a4 d1 3e
       -0.2919995 -0.22914377 -0.34564486 0.40945926
0000b0 a2 19 b3 3d 47 34 ea be 35 63 cb be 5d 9e 3d bd
       0.087451234 -0.4574301 -0.39724126 -0.046293605
0000c0 a9 c6 14 be c8 4d b9 be 04 28 d3 be 64 37 b9 be
       -0.14528908 -0.36192155 -0.41241467 -0.36175072
0000d0 75 6c 08 be 34 2e a1 3c b1 09 d0 be e0 07 d2 be
       -0.13322623 0.019675352 -0.40632394 -0.41021633
0000e0 f1 6c 57 be 58 32 ed bd d2 9e 13 be ea 11 90 bd
       -0.21037652 -0.11581868 -0.14416054 -0.07034667
0000f0 0b 5d 1a bb 66 ee da be 77 fa 11 bf ce 9f 0b be
       -0.0023553993 -0.4276001 -0.57022804 -0.1363518
000100 3b 5c c6 be 77 8c 8b be 39 ad 67 be 41 b4 82 be
       -0.3874224 -0.27255604 -0.22624673 -0.25528148
000110 c6 9a be 3d 1a 08 a3 be e5 e7 65 be f1 cf bd be
       0.093068644 -0.31842119 -0.22451742 -0.3707271
000120 c2 3e 8c 3e 66 ca 31 be 72 4c 49 3d 91 cc 85 be
       0.2739163 -0.17362365 0.04914517 -0.26132634
000130 34 33 28 be 4c 58 21 be d4 57 59 3d d4 8c 99 bd
       -0.16425782 -0.15756339 0.053062275 -0.07497564
000140 a1 ff c2 bd 02 73 ac be 59 36 7a 3e 07 9c 91 be
       -0.095214136 -0.33681494 0.24434794 -0.28439352
000150 03 f2 bb 3d d4 20 f2 3c a1 02 e2 bd 0e 71 c9 be
       0.091770194 0.02955667 -0.11035658 -0.39344066
000160 12 75 17 be a5 90 a3 be 46 8a 3e 3c 44 40 0f bd
       -0.14790753 -0.31946293 0.011629647 -0.034973398
000170 65 48 94 3d cb ac cc be e9 fd 07 3e 72 a8 37 bf
       0.07240371 -0.3997558 0.13280453 -0.717414
000180 17 11 b5 be e6 a7 fe be f0 f2 7d be c1 c8 95 be
       -0.353646 -0.4973747 -0.24799705 -0.29254726
000190 30 2f c2 be 90 f1 83 be 88 f1 ef bd 97 b4 92 be
       -0.37926626 -0.25770235 -0.1171599 -0.28653404
0001a0 84 a6 24 be 14 e6 ff bd a4 03 c1 be 73 52 c9 3d
       -0.16079146 -0.12495056 -0.3769809 0.09830179
0001b0 e4 d3 d6 be ac f8 03 3e 1c 1e 66 be 13 b7 ab be
       -0.41958535 0.1288783 -0.22472423 -0.33538112
0001c0 1f d3 b6 be 37 b0 2f be ab 2e 82 3c 53 6b 87 be
       -0.35707948 -0.17157064 0.015891394 -0.2644907
0001d0 8a 14 09 be d9 d3 f3 be 64 3f ee bd d2 38 e5 be
       -0.13386741 -0.47622564 -0.116331846 -0.44769913
0001e0 23 e1 ef bd c1 49 3f bd f8 d6 d5 be f4 4c b4 be
       -0.11712863 -0.046701197 -0.4176557 -0.3521496
0001f0 e2 40 b4 be 28 3b 82 bd ec ce 18 be d9 e9 44 bd
       -0.35205752 -0.063589394 -0.14922684 -0.048074577
000200 de fc d4 be 5f b3 16 bd 94 bb ab 3e be c3 80 bc
       -0.41599172 -0.036792155 0.33541548 -0.015718337
000210 13 7f be 3d 3f e8 53 be 25 e1 3f be 66 e7 c5 be
       0.09301581 -0.20694064 -0.1873823 -0.38653105
000220 cd d0 b1 be 4c 08 63 bd dc 94 c7 be d4 d1 4a be
       -0.34729615 -0.055427834 -0.38980758 -0.19806606
000230 dc d6 2b bd c8 4e 26 be ec 4d 85 3e 01 61 b7 be
       -0.041952953 -0.1624099 0.26036012 -0.35816196
000240 86 61 91 be bd ef ae be c0 6c 93 3d a0 f3 1e bf
       -0.28394717 -0.3416728 0.07198477 -0.6209049
000250 4a 47 04 bf 28 15 28 bf af 0b 88 be fb b1 cb be
       -0.5167128 -0.6565728 -0.26571414 -0.39784226
000260 ae 3c 9e 3d 8a e2 9c be 6f 71 62 be 12 d1 d7 bd
       0.077264175 -0.30641586 -0.22113584 -0.10537924
000270 a0 8c c3 3d 71 d5 18 3d 48 39 16 bf 52 54 31 be
       0.095483065 0.03731293 -0.58681154 -0.17317322
000280 75 dd 04 be 30 60 f7 be f7 f1 e7 bd fe 59 4a bf
       -0.12975104 -0.48315573 -0.11325448 -0.7904357
000290 d2 c8 c4 be 89 47 98 be a6 08 90 3d c8 f3 27 be
       -0.38434464 -0.29742077 0.070328996 -0.16401589
0002a0 3e f0 b8 be e0 6e b9 3c b1 6a 3a bf ce c7 6f 3e
       -0.3612079 0.022635877 -0.7281905 0.23416063
0002b0 b9 13 74 be b2 0f e6 be bc 3f aa 3e 0a 66 2f be
       -0.23835649 -0.4493385 0.3325175 -0.17128769
0002c0 32 66 94 be 01 44 69 be 9b 50 81 be 4c a9 17 bf
       -0.2898422 -0.22779848 -0.2525681 -0.592427
0002d0 83 58 95 3e 18 6c ad be 86 ff 0d bf 04 86 84 be
       0.29169092 -0.3387153 -0.5546802 -0.25883496
0002e0 6a df 80 be d2 4a 51 be c2 c6 50 be 3b 2b 01 be
       -0.2517045 -0.20438698 -0.2038832 -0.12614147
0002f0 93 81 d8 be 2d b2 ad be 66 84 17 be 69 70 b7 be
       -0.42286357 -0.33925 -0.147966 -0.3582795
000300 0d 0f 36 be a1 1a 45 3e 72 0c fa be 57 ef 03 3c
       -0.17779179 0.1924844 -0.4883762 0.0080526685
000310 a5 68 14 be 11 e0 1f bf 79 64 da bd ba 62 ae be
       -0.14493044 -0.62451273 -0.10663695 -0.34059697
000320 b3 53 9d bc be 3a ea 3e a5 29 2f be 1c 96 4a bf
       -0.01920495 0.45747942 -0.1710573 -0.791353
000330 07 4b cb be a8 d0 be be 45 bc 11 be 4b 62 13 be
       -0.3970568 -0.37268567 -0.14231975 -0.14392965
000340 49 64 77 be 5a 56 87 be f0 b4 a5 bd 9d 4e 93 be
       -0.2415935 -0.2643307 -0.08091152 -0.28770915
000350 96 24 75 be 3e 75 44 be 6a 2e 81 bd b5 29 bc be
       -0.23939738 -0.1918535 -0.06307681 -0.3675057
000360 78 dd 92 3e 95 81 0c bd ac 03 cb 3d e3 20 58 3d
       0.28684592 -0.034303267 0.0991281 0.05276574
000370 d4 4d 97 3e 0c 1e f8 3d 4d 9d 1c bf fb 9f 20 3f
       0.29551566 0.12115106 -0.6117752 0.6274411
000380 36 19 79 bc aa 15 1e be d3 d2 78 bb 1b 0f 38 3d
       -0.015203765 -0.15437952 -0.0037967458 0.04493628
000390 c8 a1 49 3e 83 3a 15 bf b6 b4 c3 be 2c ff 31 bf
       0.19690621 -0.58292407 -0.3822381 -0.69529986
0003a0 32 61 a1 bc 1d 9c 97 3c f7 a5 02 bf 9c 46 80 be
       -0.019699667 0.018507058 -0.5103449 -0.2505387
0003b0 86 76 50 3e 52 55 8b be 89 8b 79 be 8c ba 87 3d
       0.20357713 -0.27213532 -0.24369635 0.06627378
0003c0 7a c7 b1 be 45 1c f5 be 71 d2 0a be 22 6c d2 be
       -0.347225 -0.4787313 -0.1355684 -0.41098124
0003d0 bb dd 94 be 82 77 bf be 13 02 92 be b4 6e bf be
       -0.29075417 -0.37395865 -0.28517208 -0.37389147
0003e0 eb 74 07 bf ec 75 8f bd 37 b6 68 be 41 11 68 be
       -0.5291278 -0.07004914 -0.2272576 -0.22662832
0003f0 54 e8 ef be c1 85 0d be 62 d0 a3 be e0 c2 36 be
       -0.4685694 -0.13820554 -0.3199492 -0.17847776

fc3.weight f4 [4, 300]
000000 99 1b 48 bd 2f 4b 4e bd 99 32 f1 be 78 c8 82 be
       -0.048854444 -0.05036467 -0.47108915 -0.2554357
000010 c7 92 3c 3e 8b ec a3 3d 19 f0 ad 3d 5e 81 20 3e
       0.18415366 0.08004101 0.084930606 0.1567435
000020 71 b0 a5 be 34 63 94 3e 6e d6 c4 3d b1 bc 4e 3d
       -0.32361177 0.28981936 0.09611212 0.05047292
000030 08 ee eb bd 2f bd ad 3d 89 98 7c 3e 10 b0 0d 3d
       -0.1152001 0.084833495 0.24667563 0.034591734
000040 0a 29 23 3e b4 8e 08 3e 67 bc 75 3d ac 9a 07 bc
       0.15933624 0.13335687 0.059994128 -0.008276623
000050 56 f4 9c be 84 f1 36 bd 67 8d 14 bc ba 97 0e 3d
       -0.30655164 -0.04466392 -0.009066916 0.034812666
000060 a9 e1 05 be 3a e1 ce ba eb db 90 3d fd 5b 09 3d
       -0.13074364 -0.0015783675 0.07073196 0.033534992
000070 2e 74 f9 be 8d 16 ff bd 4a 80 46 be cc 94 da bd
       -0.4872145 -0.12455473 -0.19384876 -0.10672912
000080 07 c4 8a bb c5 cf 4f bd 93 c1 12 3d 73 48 df 3d
       -0.004234794 -0.050735254 0.035829138 0.109024905
000090 e4 82 4c bd a6 0c fd 3c 66 3f 89 be d5 a0 c0 3d
       -0.049929515 0.03088982 -0.26806182 0.09405676
0000a0 37 2e 9f bd 80 d4 12 be 95 06 81 3c a9 6b d7 be
       -0.07772487 -0.14338875 0.015750209 -0.42074326
0000b0 1d 33 ad 3c 56 d6 62 be 63 ea 48 bd d9 79 64 3e
       0.021142537 -0.22152075 -0.049051654 0.22312106
0000c0 1d 8f e4 bb 8c 1f 51 be 81 71 c0 3b cc a8 49 3e
       -0.0069750682 -0.2042219 0.0058729057 0.19693297
0000d0 17 f5 c0 bd 2c b7 4e 3d 83 15 47 3d 02 a2 0b be
       -0.09421747 0.050467655 0.0486045 -0.1363602
0000e0 fd 92 59 3d 09 31 59 be d5 25 c7 3d bf 2f cd bd
       0.053118695 -0.21210112 0.09724013 -0.100188725
0000f0 25 b7 98 3e 87 90 30 be 77 75 04 bd 62 65 3f 3d
       0.29827228 -0.17242633 -0.032338586 0.046727546
000100 7d c3 72 3d e5 66 9b 3e 8d b1 c0 bc e8 8d 4d 3b
       0.059268463 0.3035194 -0.023522163 0.00313651
000110 c8 3a 7e bc bd 45 10 be 3f 82 7e 3e 61 f7 76 3d
       -0.015516944 -0.14089103 0.24854372 0.060294513
000120 bd 99 f0 3d ff 07 99 be d2 d6 2e 3e b6 5b 3a 3d
       0.11748073 -0.29888913 0.17074135 0.04549762
000130 4a 35 54 3c a8 3f 3b 3e 73 2f 90 bd 65 70 88 3d
       0.012952158 0.18286002 -0.070403 0.066620626
000140 56 2b 04 3e 83 e1 12 bf 41 9a 73 3e ac 73 5a 3d
       0.12907156 -0.57375354 0.23789312 0.05333297
000150 b1 c2 8c be 5a 1d 98 3e 3f 94 9d 3e 59 ba 57 3d
       -0.27492288 0.29709893 0.30777165 0.05266795
000160 72 f6 01 3e 45 b4 1d 3d dc 4c 5d be 86 b0 bb 3e
       0.12691668 0.038501997 -0.21611351 0.36658114
000170 3b 75 1c bd 7b 03 58 bd 25 34 60 bd 24 9b 4a be
       -0.038197737 -0.052737694 -0.05473723 -0.19785744
000180 88 55 55 3d 3c 68 06 3e 15 21 99 be e8 cf 4f bd
       0.052083522 0.131257 -0.29908052 -0.050735384
000190 ac 68 1e be 41 9b 36 bd 79 3e 71 be a7 03 9e bd
       -0.15469617 -0.044581655 -0.23558988 -0.077155404
0001a0 c2 96 0f 3d 37 8d 44 3f 05 d8 1e 3d 73 85 15 3e
       0.035055883 0.76777977 0.03878023 0.14601688
0001b0 d4 8c 3c 3d 8c 47 8b 3d 56 0c a9 3e 56 38 12 be
       0.04603274 0.06800756 0.33017224 -0.14279303
0001c0 3b 1a 1a 3e e5 55 00 3e ec 0d 4e 3c 6d c9 36 3d
       0.15049069 0.12532766 0.012576561 0.04462569
0001d0 f4 12 54 bd da 57 b9 3e 3e d9 f9 bd f5 53 8e 3d
       -0.051775888 0.36199838 -0.12199639 0.06949607
0001e0 fb 3e 4a 3d 4d 0a 03 3f b3 90 58 bd 17 5f 53 3d
       0.04937647 0.5118759 -0.05287237 0.051604357
0001f0 f6 c2 57 3d e3 7e 81 3d 82 2e 91 bd 70 97 cf be
       0.052676164 0.0632303 -0.07088949 -0.40545225
000200 03 0c 8d 3d 6c 39 d8 3d f5 48 ee be a2 6f ea bd
       0.06887057 0.10557827 -0.46540037 -0.114470735
000210 54 2f 92 bd 56 e0 84 be 4a 57 81 bd 77 c0 3f bd
       -0.071379334 -0.25952405 -0.06315477 -0.04681441
000220 6a f1 7a be 5d 76 15 be 4a 3a 37 bd 8d af fa bd
       -0.24506155 -0.14595933 -0.044733323 -0.12240515
000230 1f 49 83 bd fd 98 c1 3d fa 7d ef 3d cb f4 5d be
       -0.06410431 0.09453008 0.1169395 -0.21675412
000240 14 ad e1 bd 5b f0 c3 3d 4b 2c 75 bd 22 27 16 3c
       -0.1101934 0.095673285 -0.059856694 0.009164603
000250 c1 20 77 3d fd f5 a3 bd 05 33 f6 bd e0 47 59 bd
       0.06033397 -0.08005903 -0.1202145 -0.05304706
000260 f9 cf da bd 39 54 7e be 79 84 59 bd 86 13 e3 be
       -0.10684199 -0.24836816 -0.05310485 -0.44350833
000270 fb eb 37 bf b8 80 89 3e a0 47 4d bd 6d f5 39 3e
       -0.7184445 0.26856017 -0.050117135 0.18160029
000280 99 ad 61 3e 8a 0e 0a 3f d7 03 cc 3d 8e c7 97 3d
       0.22038879 0.53928435 0.0996167 0.07411109
000290 a0 cd b4 bd 2a 06 16 bd ea 8f 37 3e 17 91 22 bf
       -0.08828282 -0.036626972 0.17925993 -0.6350264
0002a0 0d 5e e0 bd e3 09 12 3d bd 0f 9f 3d 58 ff ae 3e
       -0.10955439 0.03565396 0.07766674 0.34179187
0002b0 54 d6 b1 3d 7b 73 9d 3b 2c d3 b3 bc 05 67 4a 3e
       0.08683458 0.004805026 -0.02195128 0.19765861
0002c0 f6 2a 66 bd 8a 19 e7 bb 24 81 34 3c d1 41 86 bb
       -0.056193314 -0.007052605 0.011017118 -0.0040972014
0002d0 cd 5c 11 be 37 04 93 bd 04 c3 2b bd 12 1a 59 bd
       -0.14195557 -0.07178538 -0.04193403 -0.05300338
0002e0 20 85 14 bd 57 fe 4c 3d b8 ba 04 bf ab 63 0f bf
       -0.03625977 0.050047245 -0.5184741 -0.56011456
0002f0 3c b0 91 3e 1a 6b 59 bd f3 75 14 bb e1 a6 57 3d
       0.2845477 -0.053080656 -0.002265331 0.052649383
000300 6a 0a 64 be fc 27 ae bd ef 14 8c 3d aa 30 04 3c
       -0.22269598 -0.0850372 0.0683993 0.008068243
000310 68 80 1d be 4d 2d 41 be 78 08 83 3d c3 8f 3b bd
       -0.15381014 -0.18864937 0.063981 -0.0457914
000320 0e ef 61 be ae 8c 96 be f0 6e b9 3d 13 03 1d 3d
       -0.22063848 -0.29404205 0.09054363 0.03833301
000330 6a 39 46 be 9d ec 49 bd 85 83 13 bc 2b 45 3e bc
       -0.19357839 -0.049297918 -0.009003525 -0.011613171
000340 c5 f9 59 bd 38 70 0f be 71 24 d2 3e af 43 dd bd
       -0.053216714 -0.14007652 0.41043428 -0.10803925
000350 a8 3e bb be d1 eb ab bd 8c 4d 26 bb b0 59 44 3b
       -0.3657124 -0.08394588 -0.0025375811 0.0029960684
000360 18 a2 cc 3c 51 88 08 bf 08 e9 a3 be 62 40 95 bd
       0.024979636 -0.53333 -0.32013726 -0.07287671
000370 f0 4f ac 3e 5d df a4 3e eb 71 f1 3c d0 eb dd bd
       0.33654737 0.32201663 0.029473266 -0.10835993
000380 6e 08 34 3d 6c 40 90 bd 07 f5 57 3d ee ea 8f bd
       0.04395335 -0.070435375 0.05272391 -0.07027231
000390 0e 43 27 bd 12 63 42 bc 01 e8 59 bd aa 8a 4b bd
       -0.040835433 -0.0118644405 -0.05319977 -0.049692787
0003a0 ab 16 50 bc e1 fb ab bd c5 99 9a be fc b5 4a 3d
       -0.012700717 -0.083976515 -0.30195442 0.04948996
0003b0 71 6a 30 bd 33 29 a1 be 1f 85 8d bd 11 b8 83 bd
       -0.04307026 -0.31476745 -0.069101565 -0.06431592
0003c0 bc 0b d8 be f2 a7 9a bd e5 57 40 bd b2 ca 6c bd
       -0.42196453 -0.07551564 -0.046958823 -0.057810493
0003d0 08 9f e6 3c 55 77 4c bd c5 a5 73 3c b6 b1 37 3d
       0.028152004 -0.04991849 0.0148710655 0.044847213
0003e0 24 d3 f5 bc 75 5f 90 bb 0f 8e 9e 3b 85 48 41 bd
       -0.030007906 -0.0044059106 0.004838712 -0.0471883
0003f0 f2 1e 1e 3e 4e 7d b2 3d f6 5b 14 be 5e 58 41 3d
       0.15441492 0.08715306 -0.14488205 0.047203414

fc3.bias f4 [4]
000000 ba 13 20 be 7e ff b2 3c 3d 3e 3d 3d 13 f0 48 3d
       -0.15632525 0.021850344 0.046201933 0.049057078

bn0.weight f4 [33]
000000 bf 95 2c 3f 48 36 ed 3e d6 f3 2e 3f 29 dd c4 3d
       0.67415994 0.46330476 0.68340814 0.096124955
000010 d3 ab 56 bb 4d 5d ab 3d a8 9f 94 3c 6f 17 00 3d
       -0.0032756224 0.08367405 0.018142536 0.031272348
000020 3e 89 90 3c 34 2a 4b 3d 7e 6e 0c 3e 12 d5 05 3e
       0.017643567 0.049600795 0.13714024 0.13069561
000030 a0 a4 4e 3e 18 bb 78 3f 87 c3 25 3f a7 60 86 3f
       0.20179987 0.9716048 0.64751476 1.0498246
000040 b9 9c 89 3e 26 a1 56 3e 54 15 87 3e 2d 43 8d 3e
       0.26877382 0.20959911 0.2638346 0.27590314
000050 ba 0f 9b 3d 68 35 95 3d f0 84 6f 3d 8b f4 01 3f
       0.07571359 0.07285577 0.05847639 0.5076377
000060 c5 ad 9c 3e 76 29 06 3f 4e ac 8c 3f 66 76 c0 3e
       0.30601326 0.52407014 1.0990083 0.3759033
000070 c8 94 5f 3f e6 9c 94 3e 00 f6 ee 3c b4 53 53 3e
       0.873364 0.29025954 0.029170036 0.20637399
000080 49 74 65 3f
       0.8963056

bn0.bias f4 [33]
000000 20 a7 f3 bd e2 75 ad be ff fd 53 3d fb d0 34 3c
       -0.11897111 -0.33879 0.0517559 0.011036153
000010 07 3f 1f 3b fc 0c 9d bc 79 9e 9b 3c 23 a6 5b bd
       0.0024299042 -0.01917123 0.018996464 -0.053625237
000020 f7 70 ac bb ab 60 82 3c 3c ea f7 bb dd d5 16 be
       -0.00526249 0.015915236 -0.0075657647 -0.1473002
000030 16 3b 41 3c ba 05 3c be 79 cc f4 bd 60 f8 1b 3e
       0.011793872 -0.1836156 -0.119530626 0.15231466
000040 b4 46 a2 3a 74 27 80 3c 66 e9 95 bc 97 35 00 bc
       0.001238069 0.015643813 -0.01829977 -0.007825277
000050 2d f7 78 bd 9d 49 80 3d c9 dc 58 bd 5d fb 48 3c
       -0.0607826 0.062640406 -0.052944932 0.012266961
000060 2f 42 c4 bd 5a ca de bd 8e 0c f7 bd 28 e6 9b bd
       -0.09582936 -0.10878439 -0.120629415 -0.07612258
000070 f4 52 25 3e 50 de 33 3e a3 48 76 be d4 d4 80 be
       0.16144925 0.17565274 -0.24051146 -0.25162375
000080 40 b3 31 3c
       0.010845959

bn0.running_mean f4 [33]
000000 46 5e 78 3d 50 f8 2d c0 88 06 59 3f e6 92 67 3f
       0.06063678 -2.7182808 0.8477559 0.90458524
000010 11 86 19 3c b0 18 b1 3b c9 dc f4 3d e4 41 9e bb
       0.009370343 0.0054045543 0.11956174 -0.004829632
000020 59 0c 5b 3c 44 e2 68 ba 1f 08 fc bb da 82 fa 3b
       0.013369643 -0.0008883814 -0.007691398 0.0076449933
000030 eb 27 aa 3c 9b ca d5 bd 29 51 2b c0 a8 5f a7 3f
       0.020770987 -0.104390346 -2.6768286 1.3076067
000040 a8 ac 61 3c a6 42 fa bc ab 97 04 bd 7d b4 0f bf
       0.013774075 -0.030549359 -0.032371204 -0.5613478
000050 55 73 03 3d 97 b1 aa 3c b4 8c 38 bc 9e 30 92 3c
       0.03209241 0.020836635 -0.011264015 0.017845448
000060 06 72 b1 3d 39 85 d3 3c 31 da 7a bd fc ff 7f bf
       0.08664326 0.025820361 -0.06124324 -0.99999976
000070 52 77 6c 3d 00 00 00 00 fc ff 7f 3f 00 00 00 00
       0.05773098 0.0 0.99999976 0.0
000080 80 60 82 bb
       -0.003978789

bn0.running_var f4 [33]
000000 c3 38 48 40 1b c2 87 3e e7 2a 91 40 06 d9 86 3c
       3.1284645 0.26515278 4.536487 0.016460907
000010 9a 19 50 3d f5 ec bd 3b d8 88 c0 3d 80 bf 52 3e
       0.050805666 0.0057960697 0.09401101 0.20580864
000020 d5 23 4c 3d 79 fe c5 3d 99 d7 fc 3f 7c 9f 03 3f
       0.04983886 0.096676774 1.9753295 0.5141523
000030 92 3c 0a 40 ba fd 85 41 f6 6b 62 3f df 63 bd 41
       2.159947 16.74889 0.88445985 23.673765
000040 14 c2 a8 3d 58 cd 0f 3e 33 68 8d 3d 26 17 c8 3e
       0.082401425 0.14043176 0.0690464 0.3908016
000050 bb 02 a4 3f 17 d0 06 3f b0 66 da 3e 16 b7 d3 40
       1.2813333 0.5266127 0.4265647 6.6160994
000060 44 ee 16 40 be 36 0e 41 f2 bf ff 41 04 00 00 00
       2.3582926 8.888365 31.968723 6e-45
000070 d1 97 ff 41 04 00 00 00 04 00 00 00 04 00 00 00
       31.94913 6e-45 6e-45 6e-45
000080 67 de ae 3e
       0.34154055

bn1.weight f4 [400]
000000 17 24 06 3f 09 e0 dc 3e fd 94 07 3f 96 a6 0a 3f
       0.5239882 0.43139675 0.52961713 0.5416044
000010 b6 57 05 3f af 37 41 3f 38 08 f7 3e 88 02 42 3f
       0.5208696 0.7547559 0.48248458 0.7578511
000020 62 e6 01 3f 3b 14 21 3f 3c fa 89 3f d0 3e b3 3f
       0.5074216 0.62921494 1.077949 1.4003544
000030 26 21 bc 3f 95 3b 47 3f a8 a0 6d 3f 81 b6 1b 3f
       1.4697616 0.7782529 0.92823267 0.60825354
000040 86 27 c4 3e 79 0c 29 3f 29 f5 36 3f f2 62 49 3f
       0.38311404 0.66034657 0.71467835 0.78666604
000050 a2 84 15 3f 0c 26 30 3f ea a8 a5 be ca b6 ff 3e
       0.58405507 0.68808055 -0.32355434 0.49944144
000060 09 ef d7 3e ff 2b 8f 3f 3c 03 1c 3f f6 b0 19 3f
       0.42174557 1.1185302 0.60942435 0.60035646
000070 51 64 5b 3f 2e b1 2e 3f ef be 25 3f 3e 73 b9 be
       0.85699946 0.68239105 0.64744467 -0.36220735
000080 6d 8e 89 3e 48 0d 29 3f c4 d4 de 3e e7 6c 1f 3f
       0.26866475 0.6603589 0.43521702 0.62275547
000090 12 f9 42 3f 04 e8 88 3f 11 7e eb 3e 2e 90 44 3f
       0.761613 1.0695806 0.4599462 0.767825
0000a0 88 98 b1 be 54 9c 08 3f 19 0e fe 3e 73 3c 78 3e
       -0.34686685 0.5336354 0.4962013 0.2424181
0000b0 35 e1 c1 3e 8a 88 3b 3e 44 88 ec 3e 59 b7 2b 3f
       0.37867132 0.18313804 0.46197712 0.6707664
0000c0 b8 f3 26 3f 03 19 7c 3f 7c 20 36 3f f5 a5 c1 3e
       0.65215635 0.98475665 0.7114332 0.37821928
0000d0 ad af cf 3e 59 7f 92 3f 76 75 9c 3e ea e1 33 3f
       0.40563717 1.1445113 0.30558366 0.7026659
0000e0 08 62 7e 3f f0 ed 56 3a ca ad fc 3e ca 96 8b 3e
       0.99368334 0.00081989076 0.4935134 0.2726348
0000f0 71 bf 38 3f 7b 75 48 3c 32 af 18 3f 1f 34 38 3f
       0.72167116 0.012235041 0.59642327 0.7195453
000100 71 3a 48 3f bd f6 2f 3f 27 b9 45 3f 17 6a 42 3f
       0.78214175 0.6873587 0.77235645 0.7594313
000110 17 82 29 3f c8 cf 3e 3f d2 d8 1d 3f 01 98 21 3f
       0.66214126 0.745358 0.61658967 0.63122565
000120 80 2b af 3e f9 6a fd 3e 1a 38 3f 3f a1 42 31 3f
       0.34212875 0.49495676 0.7469498 0.6924229
000130 bd d6 1e 3f 11 d5 2d 3f a0 13 4b 3f 19 3a eb 3e
       0.62046415 0.6790324 0.7932682 0.45942762
000140 4a 29 0b 3f b1 b5 1e 3f 71 5b e7 3e 9a 74 10 3f
       0.5435988 0.6199599 0.45186952 0.5642792
000150 4b 69 f4 3e 6c 7b 0a 3f 28 3b 10 3f 6f 01 cc 3e
       0.47736582 0.54094577 0.56340265 0.39844844
000160 66 d3 90 3f 06 7c bb 3e b8 02 2c 3f 09 71 e6 be
       1.1314514 0.3661806 0.6719165 -0.45008114
000170 a6 a9 83 be aa 05 df 3e 11 e0 3e 3f 39 1f 5a 3f
       -0.2571537 0.4355901 0.7456065 0.8520389
000180 23 cd ae 3e 2e 46 28 3f 33 92 fd 3e 79 54 82 3e
       0.34140882 0.65732086 0.49525604 0.25455073
000190 0e fb 26 3f e0 4a 3f 3f c2 fc e6 3e 46 4c 3a 3f
       0.6522683 0.74723625 0.45114714 0.72772634
0001a0 55 d2 05 3f 85 e6 ed 3e f9 8a a3 be c4 2f f0 3e
       0.52274066 0.46464935 -0.31941965 0.46911442
0001b0 33 58 dd 3e 0a 29 2f 3f af 8a 77 3f df 04 44 3f
       0.43231353 0.68421996 0.9669599 0.7656993
0001c0 17 91 20 3f 80 3f 22 3f e2 e2 0a 3f 56 b7 a7 3e
       0.6272139 0.63378143 0.54252446 0.32757062
0001d0 62 ca de 3e f0 b8 40 3f 77 12 f4 3e 74 5c 18 bf
       0.4351378 0.7528219 0.47670338 -0.5951607
0001e0 f3 d5 6c 3f ed 6e 05 3f 3b 3c 49 3f af 8e fb 3e
       0.9251396 0.52122384 0.7860753 0.49132296
0001f0 04 11 28 3f 0d b2 2f 3f fe 04 0c 3f 19 d5 75 3e
       0.65650964 0.6863106 0.5469512 0.24007072
000200 9d dd 0f 3f a6 87 1a 3f 72 6c 27 3f d1 f6 07 3f
       0.5619753 0.60363233 0.6539985 0.53110987
000210 58 79 18 3f ec 49 56 3f c3 fc 38 3f 7a df 1b 3f
       0.59560156 0.83706546 0.72260684 0.60887873
000220 e6 cc ef 3e 5c ef 80 3f 14 85 9e 3f c2 aa 1a 3f
       0.46836013 1.0073047 1.2384362 0.60416806
000230 28 0f 94 3f cc 5b 6c 3f 7b 35 0f 3f 0a ec d0 3e
       1.1567125 0.9232757 0.5594098 0.40805084
000240 48 0e 0e 3f 38 fc 65 3f f7 1c 87 3f dc 96 57 3f
       0.5549054 0.8983798 1.0555714 0.8421457
000250 5e 3b db 3e a6 6e cc 3e 73 ef bd 3e d0 64 3b 3f
       0.4281873 0.39928168 0.37096748 0.732007
000260 f6 32 44 3f 2f 56 03 3f 4e 6a 29 3f a2 41 08 3f
       0.7664026 0.5130338 0.66177833 0.5322515
000270 ea 84 17 3f 06 58 0b 3f c1 72 38 3f 94 fe 86 3f
       0.59187186 0.5443119 0.720501 1.0546441
000280 0d e5 0d 3f 3b 15 11 3f d1 a6 f5 3e 9f 74 d7 3e
       0.5542763 0.5667302 0.47978833 0.42081162
000290 38 7a a4 3e c7 07 f4 3e bb dc 7e 3f 94 c9 10 3f
       0.32124496 0.47662184 0.9955556 0.56557584
0002a0 8a bd 56 3f df 96 e7 3e 8f e9 5e 3f cf 83 44 3f
       0.83882964 0.45232293 0.8707513 0.76763624
0002b0 41 8e 15 3f bc af 2c 3f f8 53 d4 3e e7 9f ca 3e
       0.5842019 0.6745565 0.41470313 0.3957512
0002c0 d4 86 07 bf 46 1c 11 3f f8 39 f8 3e 44 c0 7c 3f
       -0.52940106 0.56683767 0.48481727 0.98730874
0002d0 65 1f da 3e f1 01 24 3f e7 0d 34 3f ec 0c f7 3e
       0.42602077 0.6406546 0.70333713 0.48252046
0002e0 40 c0 08 3f 06 9f 1f 3f bf 4a 29 3f 43 26 36 3f
       0.5341835 0.62352026 0.6612968 0.7115213
0002f0 c6 fb fc 3e bc 0d dc 3e fa 5d d2 3e 89 45 86 be
       0.49410838 0.42979228 0.41087323 -0.26224926
000300 f4 29 68 3f 39 a6 eb 3e 61 c0 ef 3e cd bb 4f 3f
       0.90689015 0.46025255 0.4682646 0.81145936
000310 ad ef 57 3f 75 86 26 3e 24 45 dd 3e 9d c5 1d 3f
       0.8435009 0.16262229 0.43216813 0.6162966
000320 1e e5 17 3f 52 a2 6f 3f 6c 25 7d 3f 63 73 36 3f
       0.5933398 0.93607056 0.98885226 0.71269816
000330 e5 64 00 3f 21 e8 78 3f 97 0e 1e 3f fa 3c 34 3f
       0.5015395 0.972292 0.6174101 0.7040554
000340 52 44 1d 3f 61 2d 0f 3f a9 13 67 3f 55 d1 05 3f
       0.61432374 0.5592862 0.90264374 0.5227254
000350 74 4b 18 3f 3c 9a c6 3e 75 2f da 3e 14 73 0a 3f
       0.5949013 0.38789546 0.42614332 0.54081845
000360 fc 7b 4e 3f 58 48 0b 3f 78 59 3c 3f df 97 73 3f
       0.80657935 0.5440726 0.7357402 0.9515361
000370 2a 1c 07 3f b1 a7 23 3f 79 1e d0 be 01 50 d5 3e
       0.5277735 0.6392775 -0.4064825 0.416626
000380 ce f3 b5 3e d1 89 3c 3f 4f 2c 08 3f a6 3a 94 3e
       0.3553757 0.7364779 0.5319261 0.28950995
000390 8e 33 11 3f 2d db 08 3f d4 81 d4 3e 6f 82 ec 3e
       0.5671929 0.53459436 0.415053 0.46193263
0003a0 11 f9 b8 3e 31 01 71 3f 16 40 09 3f ec 2c c6 3e
       0.36127523 0.9414244 0.5361341 0.38706148
0003b0 10 a8 8b 3e 3d 71 42 3f 31 6d 8a 3f 7d 2d 01 3f
       0.2727666 0.7595404 1.0814573 0.50460035
0003c0 d7 4b 1a 3f f5 8d 3f 3f fb 4b 9c 3e 86 6a ff 3e
       0.6027197 0.74825984 0.30526718 0.49885958
0003d0 ad ff ee 3e c4 c8 37 3f e7 ac a3 3f 43 33 87 3e
       0.4667944 0.7179072 1.2787141 0.26406297
0003e0 5c 92 d8 3e 70 da db 3e 1d be 8d 3e 9d 30 a5 3f
       0.42299163 0.42940092 0.27684107 1.2905461
0003f0 61 ab 7f 3e 98 58 df 3e d6 2b 08 3f f7 18 01 3f
       0.2496772 0.4362228 0.5319189 0.5042872
