checkpoint_critic.pth (torch_old, 550416 bytes, 13 tensors)

fcs1.weight f4 [400, 33]
0.43672282 0.38042727 0.15251383 -0.12742506 -0.12792975 -0.025412614 -0.042580295 -0.14005524
0.2748814 0.19308242 0.43087322 0.09939447 -0.3476575 0.29423013 -0.08512966 -0.5700396
-0.026013745 0.16421348 -0.2958494 -0.18190171 -0.12438988 -0.16509105 -0.028630134 0.10787931
0.12578273 -0.17975675 0.041718137 0.029883383 0.1832104 0.041661583 0.08135281 0.0601276
0.049686477 0.06549005 0.3453136 -0.21346323 -0.15772094 0.17844641 -0.16506721 0.2420758
-0.31570575 0.04235885 -0.4493195 -0.16416162 0.36320534 0.009238219 -0.07248096 0.19534406
0.022303196 0.02856292 -0.26544926 -0.07293793 -0.013258979 -0.3937056 -0.124894165 -0.16351168
-0.110456266 0.386658 0.28891808 0.082405046 -0.021331374 0.16795756 0.053497348 0.04764233
-0.0009798392 0.023744069 0.12643287 0.060004298 -0.2561413 0.33535993 0.2244125 -0.026036525
-0.3557138 0.0981057 -0.33430994 0.24507064 0.44398192 0.31070352 -0.26836008 -0.15186411
0.19780979 0.11917795 0.017313503 0.5654816 0.46253085 -0.32623515 -0.16659959 -0.11530607
0.119668625 0.3806362 -0.13994376 0.043163985 0.17927738 0.024697062 -0.15861776 -0.046649612
0.12369271 -0.12990507 -0.33370525 -0.39407858 -0.31995252 -0.35436544 0.011550427 -0.3446654
0.038639627 -0.20315179 0.048853494 0.25274295 0.25407645 0.3255688 -0.42498207 0.22541338
-0.12037808 0.32222077 -0.053268053 -0.14022747 -0.13882804 -0.14435005 0.07087292 0.3277308
-0.024548812 0.85357916 -0.39117363 0.23117283 -0.16821492 0.19169277 0.11366899 0.13703567
0.48560643 0.011902454 0.07920395 -0.0048128874 -0.1710669 0.33944044 0.18996039 -0.3269036
0.49331355 -0.021970045 -0.20420913 -0.41456172 0.0480554 0.1611566 -0.03874757 0.17149946
-0.025700938 -0.00253671 0.074341394 0.16185561 -0.20580567 -0.03855441 -0.26084656 0.2207376
-0.24016173 -0.3827036 -0.06657892 0.2663356 -0.20020893 0.29733655 0.010611866 0.052534502
-0.08159106 0.12799561 0.2117958 0.27794632 -0.19329725 -0.24499804 0.024831332 0.22832489
-0.1278286 0.3455174 -0.12093199 -0.27791733 -0.052082196 0.14760625 0.21359976 0.110134095
-0.17290024 0.14928275 -0.21465333 0.11650931 -0.03468362 -0.1871915 0.075661965 0.06549608
0.10783355 0.037893537 0.0323204 -0.09629281 0.054945424 0.079697706 0.22482692 0.28281716
-0.16469958 -0.09877603 0.024185322 0.27861163 0.124160305 -0.04537665 -0.017809177 -0.015367686
-0.05293492 -0.21634047 0.16528489 0.14638408 -0.130252 -0.09786835 0.0015866 0.33641526
0.5125317 -0.4370512 0.020779623 -0.33438015 0.23297001 -0.20609325 0.08648152 0.20599046
0.019080913 -0.122642346 0.1357689 0.03639516 0.051016122 0.038352102 -0.1428652 0.046124697
0.28428516 0.012734778 0.14845102 0.01841752 -0.06588053 0.016630555 -0.038838502 0.41825378
0.28487143 0.11536143 0.26676148 -0.1214751 -0.035642795 0.0064307335 -0.5565521 0.13110895
-0.1619596 0.5309591 0.15341367 0.14558686 -0.0147409495 0.12417126 0.15916274 0.1793652
-0.26216158 -0.04608096 -0.14853212 -0.041850477 -0.111707196 -0.20909812 0.07127954 0.20435984
00000000: 229a df3e 5dc7 c23e 962c 1c3e b77b 02be
00000010: 0400 03be 1d2e d0bc ad68 2ebd a46a 0fbe
00000020: 41bd 8c3e 66b7 453e 6a9b dc3e 548f cb3d
00000030: 2a00 b2be 55a5 963e 7658 aebd 1dee 11bf
00000040: c71a d5bc 9427 283e 9379 97be 7144 3abe
00000050: 1fc0 febd a10d 29be be89 eabc d4ef dc3d
00000060: 30cd 003e 2712 38be a3e0 2a3d ffcd f43c
00000070: 829b 3b3e 56a5 2a3d 4d9c a63d 5c48 763d
00000080: 0c84 4b3d a61f 863d f2cc b03e 1b96 5abe
00000090: 9981 21be a8ba 363e 6107 29be b8e2 773e
000000a0: 2fa4 a1be 7980 2d3d 350d e6be fc19 28be
000000b0: 0df6 b93e e65b 173c e670 94bd 4608 483e
000000c0: 31b5 b63c c9fc e93c f7e8 87be 7b60 95bd
000000d0: 303c 59bc c893 c9be 83c8 ffbd 9b6f 27be
000000e0: e536 e2bd 0af8 c53e 12ed 933e fac3 a83d
000000f0: 22bf aebc 11fd 2b3e 0920 5b3d 9b24 433d
00000100: f36d 80ba ec82 c23c 9e77 013e 11c7 753d
00000110: f424 83be 4cb4 ab3e 64cc 653e 8d4a d5bc
00000120: 1f20 b6be a4eb c83d ac2a abbe ccf3 7a3e
00000130: 9951 e33e 8814 9f3e 7e66 89be 4482 1bbe
00000140: a68e 4a3e 9213 f43d 0cd5 8d3c 67c3 103f
00000150: d8d0 ec3e 4b08 a7be 1599 2abe 9725 ecbd
00000160: d314 f53d bfe2 c23e 6b4d 0fbe b8cc 303d
00000170: 7d94 373e 7e51 ca3c b26c 22be aa13 3fbd
00000180: 9b52 fd3d d605 05be 6adb aabe abc4 c9be
00000190: d1d0 a3be 636f b5be 013e 3d3c fc77 b0be
000001a0: 9644 1e3d 0607 50be 9a1a 483d 8667 813e
000001b0: 4f16 823e f4b0 a63e 4097 d9be c4d2 663e
000001c0: c888 f6bd 1ffa a43e 9a2f 5abd ca97 0fbe
000001d0: f028 0ebe 80d0 13be d225 913d 55cc a73e
000001e0: 971a c9bc 2a84 5a3f e947 c8be 92b8 6c3e
000001f0: 8840 2cbe 1c4b 443e 4acb e83d 1453 0c3e
00000200: 68a1 f83e 8302 433c ae35 a23d 6db5 9dbb
00000210: 292c 2fbe 23cb ad3e fa84 423e e95f a7be
00000220: 9893 fc3e 86fa b3bc 331c 51be 6f41 d4be
00000230: bdd5 443d 3c06 253e c6b5 1ebd 8e9d 2f3e
00000240: c68a d2bc ee3e 26bb 4d40 983d 7abd 253e
00000250: b9be 52be 3beb 1dbd ae8d 85be 0a09 623e
00000260: f5ec 75be baf1 c3be 875a 88bd 245d 883e
00000270: 9203 4dbe 7f3c 983e 64dd 2d3c 6b2e 573d
00000280: 3719 a7bd 4811 033e 00e1 583e fb4e 8e3e
00000290: b7ef 45be c4e0 7abe 146b cb3c 00ce 693e
000002a0: 80e5 02be a8e7 b03e 31ab f7bd 2e4b 8ebe
000002b0: 2454 55bd 1826 173e e5b9 5a3e fc8d e13d
000002c0: c30c 31be 94dd 183e 15ce 5bbe 6f9c ee3d
000002d0: 6910 0ebd 21af 3fbe a9f4 9a3d cf22 863d
000002e0: d6d7 dc3d 4136 1b3d 6562 043d 2a35 c5bd
000002f0: 740e 613d 8d38 a33d 0739 663e 69cd 903e
00000300: 02a7 28be 164b cabd 4c20 c63c 2fa6 8e3e
00000310: c247 fe3d dedc 39bd 8de4 91bc bfc8 7bbc
00000320: 49d2 58bd 5b88 5dbe 7140 293e b5e5 153e
00000330: c860 05be 346f c8bd 76f5 cf3a 9f3e ac3e
00000340: 4735 033f 2dc5 dfbe 073a aa3c e033 abbe
00000350: b18f 6e3e 1c0a 53be 391d b13d 2aef 523e
00000360: 934f 9c3c e92b fbbd 0107 0b3e 1713 153d
00000370: 48f6 503d 1817 1d3d 414b 12be 40ed 3c3d
00000380: d38d 913e 88a5 503c 8b03 183e 57e0 963c
00000390: 5fec 86bd cd3c 883c 1f15 1fbd 5c25 d63e
000003a0: abda 913e 9d42 ec3d f694 883e f0c7 f8bd
000003b0: 2efe 11bd e7b8 d23b 337a 0ebf 6d41 063e
000003c0: bdd8 25be f0ec 073f 7918 1d3e b914 153e
000003d0: 0684 71bc 804d fe3d 8ffb 223e 83ab 373e
000003e0: 0b3a 86be 64bf 3cbd ce18 18be 686b 2bbd
000003f0: bec6 e4bd d11d 56be 02fb 913d b543 513e

fcs1.bias f4 [400]
-0.27344134 -0.55244356 -0.30035418 -0.2326235 -0.581269 -0.60951567 0.7606493 -0.43961853
-0.20178512 -0.53511685 -0.4524033 -0.525457 -0.3703258 -0.35272425 -0.17980763 -0.20413311
-0.19417752 -0.12507111 -0.3061436 0.15413 -0.43390238 -0.10848838 -0.6454946 -0.56743723
-0.36696446 0.014327247 -0.47309798 -0.25219867 -0.15460385 -0.36280268 -0.27972683 -0.5371485
-0.3020194 -0.48485872 -0.113082714 -0.10701814 -0.38473988 -0.12237245 -0.53128666 -0.49238998
-0.4551703 -0.20960708 0.033820823 -0.48455632 -0.41110718 -0.3256889 -0.43412563 0.1200317
-0.63434106 -0.29246804 -0.5413729 -0.5030809 -0.0755805 -0.25135937 -0.5317333 0.03508624
-0.10153199 -0.5226985 -0.11635132 -0.4403609 -0.112451956 -0.3033432 -0.317486 -0.49198186
-0.31341434 0.2576067 -0.4501719 -0.42338413 -0.053873576 -0.38903126 -0.34379852 -0.17642708
-0.39513204 -0.4592633 -0.51381904 -0.44922262 -0.09639844 -0.33787882 -0.4993048 -0.14724775
-0.1812302 -0.45537716 -0.2688081 0.028386947 -0.19593549 -0.45139936 -0.80378807 -0.107563116
-0.37131807 -0.5078193 -0.6258589 0.9780768 -0.2790223 -0.64801073 -0.46175075 -0.3608093
-0.1665683 -0.24961002 -0.5855751 -0.6345542 -0.26704764 -0.39778298 -0.51189876 0.8682863
-0.29932654 -0.3870541 -0.70666796 -0.60708606 -0.43806723 -0.47093844 -0.69555926 -0.26213688
-0.29168993 -0.43479642 -0.49775088 -0.543452 -0.19570522 -0.23823735 -0.5951781 0.082942106
-0.16678184 -0.6589986 -0.053950872 0.030769909 -0.4356242 -0.43014255 1.0573579 0.7921314
-0.453736 -0.2834119 -0.3093951 -0.23697884 -0.3251224 -0.41383198 -0.3038735 -0.36308768
-0.45698977 -0.2794263 -0.29538992 -0.5480039 -0.5501493 -0.49435106 -0.32205197 -0.26809257
-0.33158436 -0.48232514 -0.5465508 -0.24337856 -0.5189127 -0.6056116 -0.38008907 -0.28869697
-0.14252794 -0.30189198 -0.20191658 0.9449427 -0.67058784 -0.010693462 -0.43396124 -0.03789537
-0.1915121 -0.60626054 0.04343414 -0.38742477 -0.035368416 -0.25195795 -0.091529965 -0.3563116
-0.39343503 -0.27632418 -0.075973436 0.97895133 -0.49306387 -0.4127767 0.004902908 -0.22207189
-0.20597981 -0.052738566 0.79180783 0.103312925 -0.51334155 -0.4874691 -0.40749782 -0.4568165
-0.2934404 -0.2693031 -0.056875713 -0.02604031 -0.5061745 -0.3543189 -0.21366072 -0.09370354
-0.36167347 -0.40139744 -0.29761183 -0.34945425 -0.43909454 -0.5506237 -0.4345956 -0.20124562
-0.58814937 -0.5134096 -0.089365855 -0.11165146 -0.31881815 -0.20726264 -0.4428384 -0.0111881895
-0.39908057 -0.44779995 -0.23444189 -0.21589243 -0.23327485 -0.25433597 -0.36628464 -0.15070032
-0.33440146 -0.47386864 -0.4752831 1.0299138 0.027165357 -0.6301732 -0.0928269 -0.39058223
-0.38166085 -0.46847594 0.8146757 -0.5789762 -0.38929573 -0.52438074 -0.23483685 -0.326768
-0.30581552 -0.27471584 -0.27716422 0.12265495 -0.45383942 -0.37731 -0.17015569 -0.45210063
-0.56356037 -0.40252787 -0.43774685 -0.12838991 0.746409 -0.52057016 -0.031020716 -0.20514944
0.036802508 -0.11493085 -0.075885825 -0.2570482 0.19789094 -0.07845915 -0.11704147 -0.42594913
00000000: 8100 8cbe f16c 0dbf 06c8 99be db34 6ebe
00000010: 0cce 14bf 3809 1cbf eab9 423f ae15 e1be
00000020: c2a0 4ebe 6bfd 08bf 68a1 e7be 5a84 06bf
00000030: 589b bdbe 4698 b4be 7e1f 38be 4508 51be
00000040: 79d6 46be a412 00be dbbe 9cbe 41d4 1d3e
00000050: 7428 debe 282f debd 223f 25bf 9143 11bf
00000060: c4e2 bbbe d4bc 6a3c e639 f2be 2f20 81be
00000070: 7950 1ebe 46c1 b9be 5b38 8fbe 9082 09bf
00000080: 49a2 9abe 673f f8be e997 e7bd 542c dbbd
00000090: a0fc c4be 689e fabd 6702 08bf 8a1a fcbe
000000a0: 150c e9be 3da3 56be b487 0a3d c417 f8be
000000b0: a47c d2be b2c0 a6be b745 debe 2ed3 f53d
000000c0: 2d64 22bf 5fbe 95be 6a97 0abf e9c9 00bf
000000d0: f3c9 9abd 2db2 80be ac1f 08bf 97b6 0f3d
000000e0: 01f0 cfbd 92cf 05bf 9a49 eebd fc76 e1be
000000f0: 364d e6bd cd4f 9bbe 868d a2be 0ce5 fbbe
00000100: d877 a0be 06e5 833e ee7c e6be cec5 d8be
00000110: 8aaa 5cbd 1b2f c7be 5c06 b0be 4da9 34be
00000120: bf4e cabe 8f24 ebbe a589 03bf 8200 e6be
00000130: 8c6c c5bd 74fe acbe e1a4 ffbe 1dc8 16be
00000140: 6994 39be 3227 e9be 37a1 89be be8b e83c
00000150: 50a3 48be d11d e7be 0ec5 4dbf 0d4a dcbd
00000160: 671d bebe 7200 02bf 4a38 20bf 3e63 7a3f
00000170: 03dc 8ebe 08e4 25bf 986a ecbe ffbb b8be
00000180: e190 2abe c599 7fbe 40e8 15bf 2572 22bf
00000190: 78ba 88be 36aa cbbe cc0b 03bf 0348 5e3f
000001a0: 5441 99be f42b c6be 31e8 34bf fe69 1bbf
000001b0: 594a e0be d81e f1be 2c10 32bf ce36 86be
000001c0: 6258 95be a39d debe 34d9 febe ac1f 0bbf
000001d0: f366 48be 7ef4 73be 985d 18bf 8ddd a93d
000001e0: dcc8 2abe 22b4 28bf 97fb 5cbd 2d11 fc3c
000001f0: 230a dfbe a53b dcbe 8157 873f 20c9 4a3f
00000200: 1650 e8be 5d1b 91be 0969 9ebe 95aa 72be
00000210: 7176 a6be c9e1 d3be 4f95 9bbe a1e6 b9be
00000220: 90fa e9be f710 8fbe 593d 97be fc49 0cbf
00000230: 96d6 0cbf 951b fdbe ffe3 a4be 6e43 89be
00000240: 6dc5 a9be 52f3 f6be c1ea 0bbf 3b38 79be
00000250: 76d7 04bf 5d09 1bbf 099b c2be 17d0 93be
00000260: d8f2 11be 9691 9abe 38c3 4ebe c4e7 713f
00000270: a5ab 2bbf a133 2fbc 2b30 debe 2d38 1bbd
00000280: bf1b 44be e433 1bbf ffe7 313d 8a5c c6be
00000290: 79de 10bd a200 81be 1074 bbbd 796e b6be
000002a0: 5170 c9be 5d7a 8dbe f697 9bbd 8e9c 7a3f
000002b0: de72 fcbe 7857 d3be 93a8 a03b d066 63be
000002c0: 5fec 52be 6504 58bd ebb3 4a3f ba95 d33d
000002d0: 5a6a 03bf 8d95 f9be 8ea3 d0be dae3 e9be
000002e0: d23d 96be 19e2 89be 82f6 68bd 7d52 d5bc
000002f0: a794 01bf 4969 b5be e0c9 5abe a4e7 bfbd
00000300: 442d b9be f783 cdbe 9460 98be abeb b2be
00000310: 00d1 e0be adf5 0cbf 5183 debe 5513 4ebe
00000320: f590 16bf d06e 03bf 7205 b7bd 85a9 e4bd
00000330: 223c a3be a83c 54be b7bb e2be ab4e 37bc
00000340: 4a54 ccbe 0946 e5be 8911 70be e812 5dbe
00000350: 9adf 6ebe 5338 82be a989 bbbe 2f51 1abe
00000360: ab36 abbe e99e f2be 4e58 f3be 37d4 833f
00000370: e289 de3c 0853 21bf 081c bebd 65fa c7be
00000380: 0d69 c3be 14dc efbe 968e 503f c937 14bf
00000390: c551 c7be d13d 06bf 1279 70be 234e a7be
000003a0: da93 9cbe 8ea7 8cbe 78e8 8dbe 8532 fb3d
000003b0: a45d e8be c72e c1be 4b3d 2ebe bc79 e7be
000003c0: 7e45 10bf 2218 cebe 5b20 e0be a578 03be
000003d0: a914 3f3f 1644 05bf 281f febc b212 52be
000003e0: 3abe 163d de60 ebbd 076a 9bbd d29b 83be
000003f0: eca3 4a3e 31af a0bd 70b3 efbd 0116 dabe

fc2.weight f4 [300, 404]
-0.08497467 0.0894608 0.010878707 -0.040167693 -0.02093146 -0.0749281 0.009917791 0.011206415
-0.00065946614 0.005696749 0.02233512 -0.056728445 0.06345895 -0.20492479 0.0033639634 0.06808774
0.036205027 -0.022468552 -0.017059593 0.054073866 -0.17161056 0.026424862 -0.010294522 -0.084823504
0.02173055 0.00462431 -0.018376546 0.026544893 -0.028007718 0.051156566 -0.08200019 0.018941628
-0.0021800522 0.02437055 -0.0060932077 -0.0011393162 -0.022575816 0.035477 -0.023930995 0.015595358
0.074522056 -0.038679875 0.025478357 -0.06768555 -0.0007559569 -0.11545135 -0.075051956 -0.010128535
-0.0033511105 0.12252226 -0.04144933 0.031523995 -0.000115820854 -0.006802906 0.0039503393 -0.024253722
0.039036203 0.016781341 -0.005657229 -0.07031294 0.024844758 0.029480768 -0.041486047 -0.009517492
-0.120812066 -0.05811863 -0.09222154 -0.055985317 -0.09434312 -0.0114355385 -0.08781578 0.011774945
-0.0580017 0.013620221 -0.026095951 -0.03994754 -0.0035397343 -0.21027368 -0.13130245 0.022342885
-0.04789898 0.07513515 0.2051603 0.2262699 0.09023719 0.022314154 0.04050417 -0.055817038
0.0641336 -0.02193248 0.044782996 -0.040767103 0.027315946 -0.11278467 -0.017449733 0.045012217
0.08251591 0.045179136 -0.028090134 -0.15620385 0.011260461 -0.07711357 0.037306055 -0.040232174
-0.0071609556 0.01888871 -0.03697566 0.022373423 -0.16693585 -0.013673379 0.015505771 0.052674174
0.06895043 -0.07452397 0.03963017 0.065299764 -0.014469049 0.013390733 0.055744305 -0.051441092
-0.045168713 -0.14895916 -0.06760525 -0.051342256 -0.016486568 -0.0019622063 0.016113477 0.042539373
-0.20290871 0.008025129 -0.08409281 0.05382652 0.021055127 -0.029828582 -0.07347916 -0.031098492
0.008398553 0.013946496 -0.11642748 -0.08106354 -0.08221988 0.05074783 -0.045310188 0.06818584
-0.07906115 0.02264857 0.023959896 -0.001673479 -0.11217151 -0.054148175 -0.027402492 -0.16063762
0.032086883 0.0239805 -0.05373505 -0.018852854 0.043353774 0.027716221 -0.068027474 0.007832659
0.014269549 0.06949957 0.017046075 0.04434944 -0.02419002 0.039362863 -0.034896854 -0.03197767
-0.052990854 -0.042119566 -0.038704466 -0.034677543 -0.0054318164 -0.058251105 -0.046042453 0.035684556
-0.077510186 -0.0010568349 0.060921833 0.009306315 -0.040617034 -0.057721537 -0.002903862 0.009435406
0.15179399 -0.013211653 -0.058359943 -0.006939957 -0.09702901 0.11099831 -0.0041727885 0.0013852562
0.031385392 -0.016481053 0.09949952 -0.05304477 -0.08137325 0.026721757 0.024540365 -0.011476662
-0.11963761 -0.04422041 0.048038263 -0.013376104 0.043702744 -0.10707254 -0.14754465 0.022324387
-0.113356955 0.114060186 0.046791393 0.045283362 0.037304588 -0.067689694 0.07269798 0.0016487403
0.011436559 -0.029590582 0.0071611134 0.027718948 -0.010796637 -0.045753825 -0.06914104 0.06793072
-0.0059211943 -0.0018569811 0.03269269 0.0036075842 -0.027941292 0.031956173 -0.082229 -0.038184825
-0.0693228 -0.03110035 -0.064057566 0.026913524 0.01783524 0.014931834 0.03607399 -0.034679208
-0.043752607 0.033938788 0.0730106 -0.12261341 -0.0024479323 -0.00025703094 -0.0021221142 -0.043406628
-0.08622032 -0.03086783 0.044192236 0.027133299 0.031575892 0.0033455119 0.0950587 -0.017512335
00000000: 3307 aebd 3937 b73d 9b3c 323c e186 24bd
00000010: 7478 abbc e773 99bd 3b7e 223c 1c9b 373c
00000020: 06e0 2cba cbab ba3b 24f8 b63c 165c 68bd
00000030: c4f6 813d ced7 51be f175 5c3b 9671 8b3d
00000040: b94b 143d f80f b8bc 8fc0 8bbc 8f7c 5d3d
00000050: aeba 2fbe f478 d83c 5baa 28bc f2b7 adbd
00000060: 4404 b23c 8687 973b 698a 96bc ad74 d93c
00000070: 7170 e5bc 8c89 513d b7ef a7bd 792b 9b3c
00000080: 35df 0ebb bfa4 c73c 88a9 c7bb 1c55 95ba
00000090: ebf0 b8bc 5550 113d ef0a c4bc ac83 7f3c
000000a0: 059f 983d ca6e 1ebd fdb7 d03c b99e 8abd
000000b0: 692b 46ba c271 ecbd d7b4 99bd 28f2 25bc
000000c0: 4e9e 5bbb f3ec fa3d c6c6 29bd 4e1f 013d
000000d0: d9e4 f2b8 e9ea debb d971 813b beaf c6bc
000000e0: 6de4 1f3d 0679 893c 4760 b9bb 3b00 90bd
000000f0: 3c87 cb3c a781 f13c 46ed 29bd 41ef 1bbc
00000100: 516c f7bd cd0d 6ebd a6de bcbd dc50 65bd
00000110: f736 c1bd 205c 3bbc c2d8 b3bd b3eb 403c
00000120: 3193 6dbd 5927 5f3c 2dc7 d5bc 08a0 23bd
00000130: e3fa 67bb fc51 57be 2674 06be 6d08 b73c
00000140: b931 44bd 75e0 993d 8b15 523e 4cb3 673e
00000150: 47ce b83d 2ccc b63c b3e7 253d 68a0 64bd
00000160: 7a58 833d bfab b3bc 606e 373d 68fb 26bd
00000170: b1c5 df3c a6fb e6bd bef2 8ebc bb5e 383d
00000180: 1afe a83d c20d 393d 481d e6bc e7f3 1fbe
00000190: cc7d 383c b8ed 9dbd 3cce 183d 7eca 24bd
000001a0: 73a6 eabb 7fbc 9a3c ca73 17bd 7848 b73c
000001b0: 3bf1 2abe 4f06 60bc eb0b 7e3c e0c0 573d
000001c0: e235 8d3d 06a0 98bd 3f53 223d e2bb 853d
000001d0: 970f 6dbc ce64 5b3c 2454 643d e5b3 52bd
000001e0: d402 39bd c088 18be 9f74 8abd 424c 52bd
000001f0: d70e 87bc 5c98 00bb 6900 843c c43d 2e3d
00000200: 4dc7 4fbe d57b 033c da38 acbd 3279 5c3d
00000210: cd7b ac3c 125b f4bc 3e7c 96bd 44c2 febc
00000220: 169a 093c d87f 643c 8871 eebd a404 a6bd
00000230: e562 a8bd f5dc 4f3d 2d97 39bd 05a5 8b3d
00000240: d0ea a1bd 7e89 b93c 8b47 c43c a358 dbba
00000250: 2dba e5bd 7aca 5dbd 317b e0bc 307e 24be
00000260: 896d 033d c172 c43c 4919 5cbd 4d71 9abc
00000270: ba93 313d 210d e33c fd51 8bbd 8e54 003c
00000280: d4ca 693c ca55 8e3d 36a4 8b3c c2a7 353d
00000290: 262a c6bc f43a 213d 01f0 0ebd 04fb 02bd
000002a0: f00c 59bd 9185 2cbd 9388 1ebd 0a0a 0ebd
000002b0: 61fd b1bb b698 6ebd 0397 3cbd f829 123d
000002c0: a9bd 9ebd 7f85 8aba 2c89 793d 8479 183c
000002d0: 0c5e 26bd 6b6d 6cbd b84e 3ebb f696 1a3c
000002e0: e26f 1b3e b075 58bc d60a 6fbd 9468 e3bb
000002f0: 25b7 c6bd 1553 e33d e3bb 88bb 7c91 b53a
00000300: f88d 003d 4603 87bc 68c6 cb3d 7945 59bd
00000310: 05a7 a6bd 96e7 da3c e008 c93c 9c08 3cbc
00000320: 9004 f5bd 7620 35bd c5c3 443d 7227 5bbc
00000330: a601 333d d948 dbbd f215 17be a2e1 b63c
00000340: b127 e8bd 6398 e93d 55a8 3f3d 0c7b 393d
00000350: b2cc 183d e5a0 8abd aee2 943d 8b1a d83a
00000360: 6860 3b3c f367 f2bc c6a7 ea3b d912 e33c
00000370: 61e4 30bc 5d68 3bbd d199 8dbd 431f 8b3d
00000380: 9406 c2bb f265 f3ba c5e8 053d 386d 6c3b
00000390: 23e5 e4bc 7ae4 023d ae67 a8bd b167 1cbd
000003a0: 1df9 8dbd 29c6 febc 9d30 83bd c079 dc3c
000003b0: 361b 923c a7a4 743c 52c2 133d c90b 0ebd
000003c0: ef35 33bd 6603 0b3d 9586 953d bd1c fbbd
000003d0: 7d6d 20bb 1cc2 86b9 2b13 0bbb 26cb 31bd
000003e0: 4794 b0bd 88de fcbc eb02 353d a746 de3c
000003f0: b955 013d 6040 5b3b 23ae c23d 0776 8fbc

fc2.bias f4 [300]
-0.11497215 -0.16849226 -0.19309795 -0.2513749 -0.18257202 -0.18209842 -0.13336024 -0.25898793
-0.2986346 -0.17737782 -0.33378774 -0.1465805 -0.1127125 0.20506255 0.0318319 -0.17974459
-0.22973727 -0.15791199 -0.2831401 -0.41867357 -0.2367409 -0.32911474 -0.23808345 -0.19942147
-0.2974012 -0.12179103 -0.23730929 0.04303224 -0.14851291 -0.16757672 -0.18250477 -0.19300845
-0.14739662 -0.3663816 -0.020782806 -0.1678462 -0.27255198 -0.29250595 -0.17830095 -0.14855032
-0.009279092 -0.1038906 0.28760156 -0.1968535 -0.22287217 -0.20094793 -0.17126846 -0.20724727
-0.30584988 -0.25162894 -0.14261475 0.066916764 -0.28670362 -0.13638258 -0.19519706 -0.2395674
-0.16981107 -0.18791056 -0.27063507 -0.43728158 -0.21613243 -0.21812692 -0.33875412 -0.15467174
-0.14891386 -0.13848731 -0.07879165 0.08050617 -0.26059002 0.08802401 -0.20493814 -0.29019296
-0.30964765 -0.1470639 -0.2084614 -0.14089142 -0.14449053 -0.20881024 -0.088825285 -0.13666423
-0.18798882 -0.16969667 -0.1871437 -0.21773413 -0.21336225 -0.19994916 -0.24930172 -0.25032395
-0.25538838 -0.18110806 -0.15427622 -0.25745302 -0.22032537 -0.29130745 -0.20422186 -0.13973667
-0.29486546 -0.25975466 -0.28764755 -0.09158939 -0.1461517 -0.1735491 -0.28603786 -0.20650344
-0.18221188 -0.16436434 -0.10305176 -0.14990582 -0.22847462 -0.12934689 -0.30798712 -0.23799525
-0.33299968 -0.11735985 -0.24933346 -0.17030251 -0.25195822 -0.19952783 -0.07361309 -0.1591209
-0.18728709 -0.41438913 -0.08752529 -0.24809013 -0.17734633 -0.20036131 -0.24846236 -0.22924283
-0.19846532 -0.24516697 -0.28414428 0.057318445 -0.13519488 -0.120367855 -0.2950983 -0.14358988
-0.21894898 -0.46346512 -0.25513038 -0.24990334 -0.18972318 -0.10539887 -0.12569757 -0.2102441
0.15406165 -0.2433509 -0.06751009 -0.14360501 0.011220346 -0.28954673 -0.11894685 -0.22469345
-0.21507639 -0.17123342 -0.24173318 -0.23415081 -0.2488011 -0.24645594 -0.2651865 -0.37216324
-0.27909243 0.13015242 -0.1460694 -0.27341843 -0.20308696 -0.20908748 -0.16107509 -0.16139525
-0.13260108 -0.23608394 -0.13223894 0.3497715 -0.22539125 -0.20948549 -0.111986026 -0.14898644
-0.22203632 -0.2423432 -0.17519663 -0.2149259 -0.3665395 -0.21062914 -0.14815898 -0.12465405
-0.16011034 -0.20105271 -0.17863643 -0.2380242 0.2065113 -0.12583439 -0.3077063 -0.11031311
-0.22987893 -0.1406616 -0.16555238 -0.15634716 -0.18157685 -0.13145192 0.08922952 -0.20960662
-0.20396502 -0.25208792 -0.11378195 -0.42169303 -0.14911507 -0.1446507 -0.24982385 -0.21182166
-0.16172642 -0.2317177 -0.19474803 -0.2237424 -0.11873367 -0.19815621 -0.18595777 -0.1945519
0.00877995 -0.20055427 -0.0947508 -0.40041128 -0.1778652 -0.17639244 -0.39389175 -0.28578165
-0.21065128 -0.3793524 -0.21110873 -0.19739737 -0.29782778 -0.21787399 -0.25893807 -0.15329675
-0.3102125 -0.25743318 0.1943174 -0.39762706 0.36502713 -0.2486192 -0.28629196 -0.163874
0.26490995 -0.19327359 -0.11434854 -0.15900554 -0.18550692 -0.03230422 -0.1671702 -0.23216984
-0.19577566 -0.21270421 -0.18148382 -0.26417637 -0.25417995 -0.18622582 -0.29545203 0.17534164
00000000: 8576 ebbd 3c89 2cbe 78bb 45be 36b4 80be
00000010: 29f4 3abe 0278 3abe 968f 08be 119a 84be
00000020: a2e6 98be 88a2 35be 3ae6 aabe 3319 16be
00000030: d0d5 e6bd ebfb 513e 2b62 023d f70e 38be
00000040: 3f40 6bbe aeb3 21be bdf7 90be 625c d6be
00000050: 356c 72be ba81 a8be 26cc 73be 2435 4cbe
00000060: f844 98be 936d f9bd 3501 73be 9342 303d
00000070: c513 18be 3b99 2bbe 88e2 3abe 02a4 45be
00000080: 24ef 16be 5e96 bbbe b440 aabc e0df 2bbe
00000090: ef8b 8bbe 57c3 95be 8694 36be 931d 18be
000000a0: 5507 18bc 98c4 d4bd 8340 933e f793 49be
000000b0: 9a38 64be 4bc5 4dbe 0061 2fbe a138 54be
000000c0: 5b98 9cbe 82d5 80be 9a09 12be a80b 893d
000000d0: d1ca 92be e0a7 0bbe bde1 47be 2851 75be
000000e0: f4e2 2dbe a06b 40be ae90 8abe 5fe3 dfbe
000000f0: d251 5dbe aa5c 5fbe 2e71 adbe 4562 1ebe
00000100: e07c 18be 9ecf 0dbe 845d a1bd 6be0 a43d
00000110: 0e6c 85be ef45 b43d 4edb 51be 2c94 94be
00000120: 238a 9ebe eb97 16be e876 55be d745 10be
00000130: 53f5 13be 5ad2 55be 08ea b5bd b5f1 0bbe
00000140: 2480 40be f7c4 2dbe 99a2 3fbe b2f5 5ebe
00000150: a27b 5abe 79bf 4cbe f348 7fbe 762a 80be
00000160: 44c2 82be 6474 39be 96fa 1dbe e2d0 83be
00000170: f99c 61be 4026 95be 891f 51be 2117 0fbe
00000180: 9bf8 96be 90fe 84be 8a46 93be 3893 bbbd
00000190: cba8 15be dbb6 31be 8e73 92be a375 53be
000001a0: c095 3abe 204f 28be cd0c d3bd e980 19be
000001b0: 40f5 69be 8373 04be 7db0 9dbe 07b5 73be
000001c0: ef7e aabe 5c5a f0bd 4551 7fbe c863 2ebe
000001d0: ab00 81be 0651 4cbe 76c2 96bd 97f0 22be
000001e0: 30c8 3fbe d02a d4be 7640 b3bd 570b 7ebe
000001f0: 479a 35be 842b 4dbe eb6c 7ebe a2be 6abe
00000200: 7e3a 4bbe 0d0d 7bbe 5c7b 91be bfc6 6a3d
00000210: 8770 0abe 6c83 f6bd 2017 97be 3a09 13be
00000220: 2934 60be 4d4b edbe 73a0 82be a9e6 7fbe
00000230: cb46 42be 5ddb d7bd ddb6 00be 3b4a 57be
00000240: 56c2 1d3e fa30 79be bb42 8abd 310d 13be
00000250: 8bd5 373c 783f 94be 689a f3bd 0a16 66be
00000260: fc3c 5cbe d057 2fbe e788 77be 3bc5 6fbe
00000270: b7c5 7ebe f25e 7cbe 86c6 87be 2e8c bebe
00000280: 34e5 8ebe ad46 053e 3793 15be 80fd 8bbe
00000290: 07f6 4fbe 071b 56be def0 24be cc44 25be
000002a0: 94c8 07be fdbf 71be a569 07be 4015 b33e
000002b0: f7cc 66be 5d83 56be ee58 e5bd e78f 18be
000002c0: 7d5d 63be d128 78be bf66 33be 8915 5cbe
000002d0: 11ab bbbe 2aaf 57be fdb6 17be 9f4a ffbd
000002e0: f7f3 23be c3e0 4dbe 78ec 36be 9ebc 73be
000002f0: b377 533e bbda 00be ae8b 9dbe d7eb e1bd
00000300: 6265 6bbe 9809 10be 9086 29be 7819 20be
00000310: 48ef 39be 559b 06be f7bd b63d 1ea3 56be
00000320: 35dc 50be ab11 81be 8306 e9bd 26e8 d7be
00000330: 9fb1 18be 501f 14be d3d1 7fbe c7e7 58be
00000340: 9c9b 25be 6847 6dbe 076c 47be ba1c 65be
00000350: a32a f3bd 76e9 4abe b76b 3ebe 9d38 47be
00000360: c8d9 0f3c 195e 4dbe b50c c2bd b502 cdbe
00000370: 4c22 36be 38a0 34be 2eac c9be f951 92be
00000380: f8b4 57be 7a3a c2be e32c 58be 8922 4abe
00000390: e27c 98be 5c1a 5fbe 8893 84be d3f9 1cbe
000003a0: 2cd4 9ebe 48ce 83be 24fb 463e c695 cbbe
000003b0: d6e4 ba3e 0896 7ebe dc94 92be 96ce 27be
000003c0: 47a2 873e 83e9 45be 912f eabd 59d2 22be
000003d0: 87f5 3dbe 6e51 04bd aa2e 2bbe eebd 6dbe
000003e0: 6a79 48be 22cf 59be e5d6 39be 2042 87be
000003f0: e023 82be fbb1 3ebe 7d45 97be c28c 333e

fc3.weight f4 [1, 300]
-0.01075974 0.020865113 0.020376854 -0.009203407 -0.0031078449 -0.0068726228 0.0035963673 0.014115298
-0.024630848 0.01249715 -0.043461137 0.016905842 -0.024884902 0.046179663 0.04027054 -0.020690203
0.033234283 -0.022916634 -0.015152219 0.019689435 -0.015382964 0.027980175 -0.005167281 0.015070505
-0.03431185 -0.0032035192 0.008173928 0.0076026907 -0.007978772 -0.0004330628 0.021618778 0.004138799
0.000564208 -0.062201086 0.0097019775 0.019757038 0.014749404 -0.069389336 -0.010172165 -0.007961732
0.012305342 -0.01229094 0.0192056 0.017259324 0.029100735 -0.027689625 -0.005305984 0.011253436
-0.00915897 -0.0076511083 0.01862063 0.017493557 -0.0028667403 0.023686802 0.013826526 -0.00093247
-0.006052655 0.0054050013 -0.0436332 0.04295799 -0.018106796 -0.02227667 -0.060003705 0.0068486636
0.008401518 0.000716711 0.026366197 0.020441655 -0.012849655 0.03243374 0.013338686 0.006142421
0.02059501 -0.006590464 -0.020830033 0.0035485555 0.0133123705 0.02611063 -0.02728052 0.0033894214
0.024428464 0.0019666655 0.01127268 0.016703805 0.018745841 -0.0041315183 0.014635632 -0.00041894184
0.014156165 -0.020663064 0.02028007 0.03071333 0.004141162 -0.0067413463 0.0033136937 0.016368544
-0.02990621 0.024957517 0.01936159 -0.01443155 0.008237065 -0.0105149215 -0.02623026 -0.00441444
-0.0077482094 -0.014171054 0.014339709 0.014290978 0.023127828 -0.00935523 -0.028842201 0.005096985
-0.009543999 0.026086519 0.026534328 -0.005517562 -0.03047037 0.01484016 0.033281468 0.0083505595
-0.028001985 -0.0024586986 -0.011746475 -0.00044015012 -0.012175966 -0.022785272 -0.021091614 -0.0033801107
-0.01588446 0.0015212442 0.026239807 0.009676237 0.017432252 -0.0025034777 0.010360445 -0.030243611
-0.0074568857 -0.013848858 -0.022917593 0.015699947 0.013034904 0.013221968 0.022830933 0.014519265
0.023361236 -0.018435203 0.010411722 -0.029506672 0.012873501 -0.02868102 0.0093069 -0.009539762
0.0031545253 0.012211276 -0.005144508 0.01970534 0.00074605295 -0.00755872 -0.028210904 0.020929303
0.016953535 0.039391592 -0.0023458772 0.02523753 0.016150616 -0.014254974 -0.024380947 -0.017098978
0.0132515095 0.021311857 -0.04188844 0.05825078 -0.028622607 -0.006407213 -0.029362872 0.0150345145
-0.013746586 0.00090707786 0.021942474 -0.0070580845 -0.017401438 0.0056226426 0.0054268655 -0.0047570406
0.023427127 0.019719886 -0.013289078 -0.018344898 0.02532346 0.0045386376 0.031580262 -0.014835517
0.01407755 -0.0030354504 -0.0017016252 -0.013958319 -0.005753916 0.01290798 0.009394506 0.023010742
0.012861787 -0.011204736 0.02643433 -0.033101734 0.012015088 0.011793251 -0.018234998 -0.017323727
-0.00032284626 -0.014818207 -0.0016347072 0.0020260531 0.013175735 -0.027585244 -0.022344014 -0.01880467
0.008834978 0.02205595 0.0014743068 0.03400376 0.024464745 0.030411065 -0.0049409997 0.024014847
0.007489126 -0.011703156 -0.0014500826 0.0024175036 0.02596405 -0.031655207 -0.028283054 -0.009622992
0.0028172233 -0.020454908 0.033284992 -0.00441107 0.048777476 0.027439717 -0.0031693035 0.029551279
0.027766163 0.0044739065 0.022283502 0.025177997 -0.003081148 0.016400464 -0.011161598 0.0024677138
0.012520435 0.011486093 0.016960403 -0.0016981541 0.02804079 -0.0040289653 -0.031294975 0.03566299
00000000: 9f49 30bc 50ed aa3c 5ced a63c e3c9 16bc
00000010: fcac 4bbb bd33 e1bb 08b1 6b3b da43 673c
00000020: a2c6 c9bc d9c0 4c3c 4e04 32bd 1f7e 8a3c
00000030: 6cdb cbbc e326 3d3d b9f2 243d 807e a9bc
00000040: ac20 083d aabb bbbc 0341 78bc bd4b a13c
00000050: d408 7cbc ae36 e53c 4b52 a9bb 48ea 763c
00000060: 958a 0cbd 22f2 51bb f0eb 053c fe1f f93b
00000070: 65b9 02bc b50c e3b9 dd19 b13c c39e 873b
00000080: 5ce7 133a 91c6 7ebd 0bf5 1e3c 83d9 a13c
00000090: 7ca7 713c ff1b 8ebd 27a9 26bc ed71 02bc
000000a0: 589c 493c f05f 49bc 1055 9d3c 6d63 8d3c
000000b0: aa64 ee3c 5ad5 e2bc d2dd adbb 5560 383c
000000c0: 810f 16bc 26b6 fabb 4b8a 983c a64e 8f3c
000000d0: ecdf 3bbb d30a c23c a788 623c 0171 74ba
000000e0: 5a55 c6bb 701c b13b bab8 32bd b8f4 2f3d
000000f0: b454 94bc 907d b6bc 72c6 75bd c16a e03b
00000100: 85a6 093c a9e1 3b3a ecfd d73c 4275 a73c
00000110: 5c87 52bc 3ed9 043d 818a 5a3c 5d46 c93b
00000120: deb6 a83c d2f4 d7bb bfa3 aabc e28e 683b
00000130: 211c 5a3c f6e5 d53c 667b dfbc 0e21 5e3b
00000140: 341e c83c 2ce3 003b 0cb1 383c 6bd6 883c
00000150: e190 993c b061 87bb 4aca 6f3c 6ca5 dbb9
00000160: 42ef 673c 9645 a9bc 6422 a63c 859a fb3c
00000170: 96b2 873b 83e6 dcbb 8e2a 593b 5317 863c
00000180: defd f4bc b573 cc3c 329c 9e3c 4f72 6cbc
00000190: c1f4 063c c746 2cbc d8e0 d6bc 02a7 90bb
000001a0: b1e4 fdbb b52d 68bc 19f1 6a3c b524 6a3c
000001b0: 9276 bd3c ae46 19bc 7b46 ecbc 9c04 a73b
000001c0: 6f5e 1cbc 65b3 d53c 855e d93c aacc b4bb
000001d0: ff9c f9bc 2424 733c 2652 083d c9d0 083c
000001e0: 6b64 e5bc 1e22 21bb 4974 40bc f3c3 e6b9
000001f0: b47d 47bc 2ea8 babc 52c8 acbc d984 5dbb
00000200: 2120 82bc 7c64 c73a ddf4 d63c 1489 1e3c
00000210: 15ce 8e3c 6311 24bb dbbe 293c 73c1 f7bc
00000220: e458 f4bb 52e6 62bc adbd bbbc 2d9d 803c
00000230: 5a90 553c f4a0 583c f007 bb3c 36e2 6d3c
00000240: 1060 bf3c 6c05 97bc ed95 2a3c fab7 f1bc
00000250: 60eb 523c 75f4 eabc f87b 183c a94c 1cbc
00000260: 27bc 4e3b ce11 483c 4393 a8bb 186d a13c
00000270: c492 433a 24af f7bb 8e1a e7bc ee73 ab3c
00000280: 24e2 8a3c 1459 213d 4abd 19bb f0be ce3c
00000290: 4c4e 843c b28d 69bc 8dba c7bc 2813 8cbc
000002a0: dc1c 593c 3496 ae3c 3693 2bbd 5f98 6e3d
000002b0: f579 eabc 99f3 d1bb 688a f0bc 5353 763c
000002c0: 5c39 61bc f7c8 6d3a b4c0 b33c 8147 e7bb
000002d0: 768d 8ebc 253e b83b d9d3 b13b f3e0 9bbb
000002e0: 3fea bf3c 998b a13c 6fba 59bc 0a48 96bc
000002f0: 2573 cf3c dab8 943b 4e5a 013d ab10 73bc
00000300: 86a5 663c 68ee 46bb 1109 dfba 6fb1 64bc
00000310: 598b bcbb fe7b 533c 6aeb 193c 0681 bc3c
00000320: 3fba 523c 1294 37bc cf8c d83c af95 07bd
00000330: efda 443c 7b38 413c 9061 95bc 7dea 8dbc
00000340: b143 a9b9 11c8 72bc ac43 d6ba 88c7 043b
00000350: 0adf 573c 73fa e1bc cb0a b7bc 400c 9abc
00000360: 95c0 103c aeae b43c 873d c13a 8747 0b3d
00000370: 4a6a c83c a020 f93c 1ce8 a1bb c9ba c43c
00000380: 5867 f53b 98be 3fbc b310 beba fb6e 1e3b
00000390: 8fb2 d43c e4a8 01bd ddb1 e7bc c1a9 1dbc
000003a0: 2aa1 383b 0d91 a7bc d855 083d bd8a 90bb
000003b0: e4ca 473d 42c9 e03c 17b4 4fbb 8615 f23c
000003c0: dd75 e33c d999 923b e48b b63c 1642 ce3c
000003d0: 16ed 49bb 445a 863c 23df 36bc 5eb9 213b
000003e0: 8322 4d3c 2a30 3c3c 8bf0 8a3c 9994 deba
000003f0: cdb5 e53c 6905 84bb 292f 00bd 5b13 123d

bn0.weight f4 [33]
0.44024268 0.23818707 0.46697098 0.06777488 0.04459581 0.095781654 0.019257896 0.029831644
0.025433553 0.038693897 0.06559118 0.070337705 0.09812856 0.71711284 0.3376495 0.7829464
0.1359906 0.16322619 0.13996851 0.19074804 0.043872222 0.031252135 0.028548893 0.30160275
0.13924026 0.2887356 0.9077484 0.3256033 0.84440833 0.17927605 0.37449646 0.70004636
0.769198
00000000: 7d67 e13e 50e7 733e d216 ef3e 8ecd 8a3d
00000010: 19aa 363d 2c29 c43d bcc2 9d3c 7e61 f43c
00000020: 075a d03c 7e7d 1e3d ab54 863d 370d 903d
00000030: a0f7 c83d b594 373f 65e0 ac3e 2d6f 483f
00000040: 1f41 0b3e c424 273e e853 0f3e 7453 433e
00000050: 5cb3 333d 3d02 003d 5edf e93c ad6b 9a3e
00000060: 0095 0e3e 27d5 933e 3362 683f 7ab5 a63e
00000070: 252b 583f 2494 373e 00be bf3e 3d36 333f
00000080: 29ea 443f

bn0.bias f4 [33]
-0.047778226 -0.26890716 -0.0053272294 0.1006273 0.03211764 -0.0030833145 -0.018537711 0.017410321
0.000808048 -0.0049840333 -0.015524652 -0.0830996 0.032299414 -0.0776331 -0.09978982 0.052881375
0.024064897 0.011854213 -0.01823169 -0.103389576 0.025237234 -0.0021124189 0.018064111 -0.028082293
-0.055003144 -0.052839704 -0.12695026 -0.0017547292 0.06326256 0.0026456972 0.0009095441 0.0005183548
0.029072352
00000000: 1ab3 43bd 33ae 89be 0a90 aebb b015 ce3d
00000010: c98d 033d 6f11 4abb 66dc 97bc 17a0 8e3c
00000020: 2fd3 533a 1a51 a3bb 1c5b 7ebc 2030 aabd
00000030: 644c 043d 1afe 9ebd 9b5e ccbd 249a 583d
00000040: bf23 c53c 2c38 423c a05a 95bc eabd d3bd
00000050: 51be ce3c 8270 0abb 30fb 933c d60c e6bc
00000060: fa4a 61bd 726e 58bd 40ff 01be f1fe e5ba
00000070: cd8f 813d 6f63 2d3b 796e 6e3a 34e2 073a
00000080: 2429 ee3c

bn0.running_mean f4 [33]
0.052623287 -2.71714 0.8770727 0.90353864 0.008163665 0.005270965 0.12424664 -0.004290207
0.015750967 0.0012314098 0.0021560385 0.010792763 0.02034791 -0.11572088 -2.672038 1.3762776
0.013369155 -0.029570471 -0.03194812 -0.561654 0.015758136 0.024344891 -0.007187292 0.033441223
0.07997715 -0.003993979 -0.07996729 -0.99999976 0.14595208 0.0 0.99999976 0.0
0.0015772447
00000000: 848b 573d 9fe5 2dc0 d687 603f 4f4e 673f
00000010: e5c0 053c 0fb8 ac3b 0675 fe3d dd94 8cbb
00000020: 2c08 813c 4267 a13a 534c 0d3b 21d4 303c
00000030: a9b0 a63c 12ff ecbd ac02 2bc0 dd29 b03f
00000040: 4d0a 5b3c c63d f2bc 08dc 02bd 8ec8 0fbf
00000050: 3517 813c f06e c73c 6083 ebbb aaf9 083d
00000060: 0fcb a33d eddf 82bb e4c5 a3bd fcff 7fbf
00000070: 7674 153e 0000 0000 fcff 7f3f 0000 0000
00000080: 8dbb ce3a

bn0.running_var f4 [33]
3.1168535 0.2603576 4.500587 0.018589413 0.050593562 0.0054139895 0.093078084 0.2097158
0.049523663 0.09724799 1.9897418 0.5075218 2.1983113 16.751492 0.8841912 23.52015
0.08276246 0.14055057 0.068235256 0.39132473 1.2539451 0.52159214 0.4227925 6.573183
2.3169105 8.991528 32.129833 6e-45 31.727669 6e-45 6e-45 6e-45
0.34448504
00000000: 877a 4740 974d 853e cf04 9040 d348 983c
00000010: 323b 4f3d d667 b13b b99f be3d bdbf 563e
00000020: 53d9 4a3d f429 c73d dcaf fe3f f3ec 013f
00000030: 22b1 0c40 0e03 8641 5b5a 623f 4429 bc41
00000040: 5d7f a93d 7dec 0f3e edbe 8b3d b75b c83e
00000050: 4681 a03f 1087 053f 4278 d83e 8457 d240
00000060: 4348 1440 4cdd 0f41 f384 0042 0400 0000
00000070: 44d2 fd41 0400 0000 0400 0000 0400 0000
00000080: 5860 b03e

bn1.weight f4 [400]
0.31809247 -0.09144576 0.06338893 -0.036626145 -0.08562209 -0.084413595 0.006072962 0.4141679
0.033612207 0.23824945 0.115606725 0.19729723 0.19730946 -0.01516296 0.14059632 0.42925948
0.046550013 0.1897237 0.36615872 0.1546834 0.108645156 0.14265329 0.31422582 0.08786502
0.16835278 0.39209625 0.26890647 0.39714357 0.6048987 0.049057495 0.11500208 -0.0545492
0.20205869 0.09496977 0.18204002 0.46896482 0.102512 0.35402104 0.07694279 0.1806976
0.39133328 0.29072607 0.3233693 0.06939836 0.4977118 0.76558036 0.20261107 0.19368827
0.13087341 0.22171608 0.28517917 0.09033798 0.21319805 0.20417252 0.18012795 0.09582863
0.37984875 0.13490464 0.19765583 0.15743934 0.10537012 0.37942144 0.12562832 0.20571229
0.33933544 0.13042144 0.35335377 0.05011532 0.46794432 0.08694759 0.24409111 0.18774015
0.09291453 0.3485571 0.13409148 0.22638392 0.09045559 0.20368534 0.25843742 0.16717936
0.62693 0.13114464 -0.0062100072 -0.34127498 0.21912166 0.13140415 0.19152167 0.116114676
0.35037568 0.25941253 -0.031198295 -0.0012984949 0.16814117 0.098133825 0.2759955 0.21636654
0.09071247 0.41162392 0.08494809 0.13749352 0.37362167 0.19191378 0.4550199 -0.0018733918
0.29304028 0.20301713 -0.2073584 -0.08199095 0.05428051 0.18945903 -0.09270589 0.3928309
0.16812949 0.10378679 0.1660907 0.2029712 0.81847054 0.29220945 -0.016523317 0.13162236
0.25422198 0.16242838 0.20037302 0.44196993 0.047172055 0.086570315 -0.007921091 -0.0028777071
0.21848895 0.11942779 0.14642918 0.1825539 0.39401472 0.1340164 0.31541494 0.2839443
0.1491674 0.57015556 0.5502961 0.25022933 0.7231359 0.09948876 0.6750963 0.19568127
0.064093724 0.17508855 0.003926989 0.35973564 0.3193055 -0.007102841 0.014270881 0.15687643
0.39846364 0.13171567 0.77424276 0.0027865309 0.17153181 0.28996843 0.012613237 0.5709502
0.16819355 0.16987893 0.2477456 0.07566909 0.15453057 0.7878073 0.13560355 0.18498205
0.24063246 0.32163125 0.26473606 0.0017309622 0.15576416 0.272258 0.20320529 0.28518707
0.026586728 0.16929033 -0.00048726707 0.38104597 0.118400976 0.14774516 0.89532673 0.0725119
0.18335581 0.1908854 0.57137275 0.46600676 0.5772338 0.07358257 0.3883069 0.46984473
0.16515969 0.24699637 0.34948057 0.11615136 0.30618516 0.1416323 0.052023385 0.23316215
0.088354416 0.0751489 0.12300686 0.2565157 0.24852605 0.21159708 0.039087404 0.25038266
0.33896977 0.1954787 0.37056452 0.3139923 0.53648853 0.23662561 0.048663013 0.35727316
0.16857937 0.09137188 0.3996773 -0.006096633 0.25039348 0.093021356 0.24942073 0.1957979
0.09205339 0.029981503 -0.010281096 0.04979093 0.17117491 0.085521884 0.24258597 0.13617866
0.22725174 0.17304732 0.27080172 0.29555792 0.35313112 0.0055935616 0.09742883 0.10702332
-0.12382512 0.50800705 0.116623595 0.14902203 -0.00050824555 0.0674148 0.34502947 0.38443434
0.42067927 0.07968338 0.09260634 0.35333818 0.23270391 0.18402018 0.52285093 0.050166544
00000000: 04dd a23e ea47 bbbd 0ed2 813d 4c05 16bd
00000010: a25a afbd 09e1 acbd b3ff c63b d10d d43e
00000020: f4ac 093d aaf7 733e 38c3 ec3d 4908 4a3e
00000030: 7e0b 4a3e 106e 78bc 7bf8 0f3e e6c7 db3e
00000040: 3aab 3e3d ee46 423e 2879 bb3e 5365 1e3e
00000050: 5a81 de3d b413 123e 35e2 a03e 93f2 b33d
00000060: ac64 2c3e d7c0 c83e 1cae 893e 6756 cb3e
00000070: a4da 1a3f 83f0 483d 3686 eb3d fb6e 5fbd
00000080: 79e8 4e3e 837f c23d b368 3a3e 281c f03e
00000090: d0f1 d13d 3f42 b53e 2e94 9d3d cb08 393e
000000a0: d65c c83e 0cda 943e a990 a53e ba20 8e3d
000000b0: 15d4 fe3e 13fd 433f 4779 4f3e 3856 463e
000000c0: ae03 063e 8a09 633e 0103 923e 1e03 b93d
000000d0: 9750 5a3e 9a12 513e 7673 383e cd41 c43d
000000e0: 897b c23e 7124 0a3e 4a66 4a3e c737 213e
000000f0: 4acc d73d 8743 c23e b6a4 003e 3ea6 523e
00000100: 60bd ad3e 338d 053e c9ea b43e b945 4d3d
00000110: 6696 ef3e 9411 b23d 05f3 793e f43e 403e
00000120: f949 be3d 1476 b23e 474f 093e 30d1 673e
00000130: c840 b93d e492 503e e951 843e 1131 2b3e
00000140: 7c7e 203f c84a 063e 517d cbbb 98bb aebe
00000150: 6e61 603e cf8e 063e 421e 443e 88cd ed3d
00000160: 7164 b33e b8d1 843e 9193 ffbc 4232 aaba
00000170: 332d 2c3e 63fa c83d 484f 8d3e 318f 5d3e
00000180: 76c7 b93d 5fc0 d23e 44f9 ad3d 1acb 0c3e
00000190: 574b bf3e 0c85 443e 5ef8 e83e 998c f5ba
000001a0: 6009 963e b9e3 4f3e c355 54be dfea a7bd
000001b0: 3d55 5e3d 8c01 423e 96dc bdbd 2221 c93e
000001c0: 232a 2c3e 2b8e d43d ae13 2a3e afd7 4f3e
000001d0: 4987 513f 7a9c 953e e85b 87bc 03c8 063e
000001e0: 6229 823e a053 263e 962e 4d3e e249 e23e
000001f0: 7c37 413d c74b b13d 77c7 01bc ea97 3cbb
00000200: 91bb 5f3e 8f96 f43d 88f1 153e 69ef 3a3e
00000210: 4cbc c93e 983b 093e 117e a13e 2661 913e
00000220: 57bf 183e b7f5 113f 35e0 0c3f 0f1e 803e
00000230: 6f1f 393f c3c0 cb3d 1cd3 2c3f ac60 483e
00000240: 9243 833d 6a4a 333e f9ad 803b 452f b83e
00000250: 037c a33e f3be e8bb 6ad0 693c 37a4 203e
00000260: 6d03 cc3e 79e0 063e c634 463f 3b9e 363b
00000270: 09a6 2f3e be76 943e c0a7 4e3c cb29 123f
00000280: ee3a 2c3e bef4 2d3e 06b1 7d3e 65f8 9a3d
00000290: 433d 1e3e bdad 493f a8db 0a3e ef6b 3d3e
000002a0: 5b68 763e daac a43e 7c8b 873e 74e1 e23a
000002b0: a480 1f3e 6765 8b3e 0c15 503e 0a04 923e
000002c0: 69cc d93c 725a 2d3e e177 ffb9 7518 c33e
000002d0: 367c f23d 824a 173e 2234 653f 1e81 943d
000002e0: a0c1 3b3e 7677 433e 7c45 123f 7098 ee3e
000002f0: 98c5 133f 75b2 963d 29d0 c63e 7d8f f03e
00000300: 9f1f 293e 9eec 7c3e 1eef b23e c4e0 ed3d
00000310: 4dc4 9c3e 0f08 113e 7916 553d 0fc2 6e3e
00000320: 29f3 b43d abe7 993d 05eb fb3d 0756 833e
00000330: 9d7d 7e3e e8ac 583e 1d1a 203d 2832 803e
00000340: 728d ad3e 912b 483e a2ba bd3e 99c3 a03e
00000350: 5057 093f fc4d 723e de52 473d 82ec b63e
00000360: 12a0 2c3e 2e21 bb3d 81a2 cc3e 44c6 c7bb
00000370: 9333 803e fb81 be3d 2668 7f3e 3f7f 483e
00000380: 7d86 bc3d c59b f53c 0b72 28bc 93f1 4b3d
00000390: 7a48 2f3e 1926 af3d 7568 783e 6b72 0b3e
000003a0: aeb4 683e 5133 313e 86a6 8a3e 5e53 973e
000003b0: 9acd b43e 324a b73b c488 c73d 0b2f db3d
000003c0: 0698 fdbd c00c 023f 5ad8 ee3d 3b99 183e
000003d0: c83b 05ba c510 8a3d b4a7 b03e 94d4 c43e
000003e0: 4663 d73e 0a31 a33d 65a8 bd3d bee8 b43e
000003f0: ef49 6e3e c96f 3c3e 8fd9 053f 6f7b 4d3d

bn1.bias f4 [400]
-0.15947871 -0.051160302 0.0023987857 -0.0036951792 -0.0017005007 -0.0015893248 1.6480843e-07 -0.008257092
0.11934786 -0.120667465 -0.0014438437 0.054876853 0.05395293 0.44352022 -0.03620749 0.028376477
-0.06593416 0.16704094 0.09993004 0.10685241 0.28898847 -0.042508524 0.017856928 -0.033190582
-0.020693505 0.3013089 0.057464767 0.104518905 0.11285969 0.00631261 0.024160625 -0.0013906716
0.13662249 -0.059808146 0.098381005 0.12029573 0.086208954 -0.15885657 0.018911436 0.049881924
0.05729953 -0.0008498359 -0.15086877 0.030646086 -0.06919507 0.32661337 0.043941088 0.074634574
0.066698976 0.005384177 0.18516903 -0.03604323 0.0405034 0.00022449461 0.00064896274 -0.07510303
0.049952492 -0.0718016 -0.045267645 -0.09374521 0.011507877 0.024060858 0.054023977 0.0721696
0.13331686 0.05195359 0.006634183 0.023249095 -0.01723436 -0.04272646 0.015774546 -0.077107936
-0.05901738 -0.018242229 0.0012249006 0.048314184 0.047701452 0.113951534 0.02428645 0.007676914
-0.008230885 0.03901647 -0.46296588 -0.25188902 0.08483476 0.078113765 0.00584662 -0.0117756855
-0.18374619 0.049039487 -0.0074107586 -0.0008601992 0.013753348 0.31464672 -0.03928315 0.116858736
-0.04262044 0.002493303 0.006543969 0.05968165 0.006820117 -0.012770334 -0.01902949 0.00031536617
0.009827107 -0.05470992 -0.0026607031 -0.0007389318 -0.0015948944 -0.019074466 -0.0011645352 0.00020036158
-0.04817239 -0.023853425 0.11303429 0.0060929325 0.0065621105 0.07287365 -0.003168942 -0.043526363
-0.061116792 0.031245442 0.12427832 0.030136138 -0.0003320379 -0.023695512 -0.0012568395 0.00019219653
0.06265855 -0.13524985 -0.023397146 -0.0476202 -0.12357301 -0.015447073 0.113187306 0.07498381
0.00015913529 0.0004829114 0.0025526814 0.06799329 0.22648554 0.022624021 -0.0031063326 0.013503479
0.0040725213 0.020888524 -0.0044553387 0.17023611 0.033160202 0.0034820929 0.10148037 -0.03165092
-0.01360852 -0.08168357 -2.0020467e-05 0.00022219816 0.006412185 0.020153211 0.20012513 -0.04108156
0.042164158 -0.04156067 -0.008394993 0.0008291904 -0.06992085 0.005956145 0.018367913 0.010097986
0.024613624 0.08637678 -0.09489622 -0.0007542357 -0.034858853 0.013333992 0.002589197 0.0031269921
0.0030544233 0.044184577 0.0020091257 0.088474326 -0.013717411 -0.02513002 0.19837512 0.015963022
-0.39114928 0.011237893 0.10752535 0.1199062 -0.046313446 -0.19458386 0.077783264 0.12975894
0.02802425 -0.006370367 -0.2765248 -0.054006275 0.07806485 0.0067633055 -0.018182425 0.024149822
0.07462573 0.03846123 0.12260395 0.063747935 0.057828657 0.046212632 -0.046605468 0.0056155506
-0.06872989 -0.11680575 0.003126207 0.001310522 0.0004890313 0.02211524 0.002160377 0.03947223
-0.018059224 -0.005035544 0.19769141 0.0013961444 0.058926303 0.021134922 0.01529383 0.05742492
0.09915565 0.004003291 0.0032016588 0.049850866 0.08133335 0.017109891 -0.0015626037 0.0075890613
-0.036991518 0.19381449 0.072116554 0.02806609 0.26818323 -0.0014031181 -0.024852807 0.013497627
0.040942952 -0.043607593 -0.05196864 -0.01242536 -0.0006026076 0.01112306 0.077438064 0.16944203
0.032704193 0.084045455 -0.0017629643 0.06925425 -0.016551076 0.087773286 0.05224266 0.08146748
00000000: 634e 23be 778d 51bd f234 1d3b d22a 72bb
00000010: 56e3 deba e450 d0ba 32f6 3034 c148 07bc
00000020: a76c f43d 8120 f7bd 5b3f bdba 8dc6 603d
00000030: bffd 5c3d 1515 e33e 4e4e 14bd c975 e83c
00000040: 7d08 87bd c80c 2b3e 1fa8 cc3d 70d5 da3d
00000050: 4cf6 933e 6b1d 2ebd b148 923c d9f2 07bd
00000060: 6d85 a9bc 2945 9a3e 2d60 6b3d 020e d63d
00000070: fb22 e73d 03da ce3b 81ec c53c 3247 b6ba
00000080: c4e6 0b3e 63f9 74bd fb7b c93d 9c5d f63d
00000090: 528e b03d 4cab 22be 28ec 9a3c fd50 4c3d
000000a0: e9b2 6a3d 86c7 5eba 587d 1abe 800d fb3c
000000b0: 25b6 8dbd de39 a73e 92fb 333d 03da 983d
000000c0: 7999 883d c06d b03b f39c 3d3e 11a2 13bd
000000d0: e5e6 253d 5066 6b39 271f 2a3a 9ecf 99bd
000000e0: fc9a 4c3d b80c 93bd 916a 39bd 7dfd bfbd
000000f0: 898b 3c3c 471b c53c 3f48 5d3d a8cd 933d
00000100: 3784 083e 4acd 543d 9063 d93b e374 be3c
00000110: 132f 8dbc f101 2fbd 9f39 813c c4ea 9dbd
00000120: 35bc 71bd ba70 95bc d88c a03a 18e5 453d
00000130: 9962 433d 6c5f e93d 61f4 c63c 9f8e fb3b
00000140: d5da 06bc bccf 1f3d dd09 edbe 99f7 80be
00000150: d9bd ad3d 1cfa 9f3d 0195 bf3b ceee 40bc
00000160: f627 3cbe a1dd 483d f3d5 f2bb fe7e 61ba
00000170: b955 613c 6019 a13e 5ee7 20bd a253 ef3d
00000180: c592 2ebd af66 233b ca6e d63b bf74 743d
00000190: 4a7b df3b aa3a 51bc bce3 9bbc bb57 a539
000001a0: e001 213c 8217 60bd 315f 2ebb e0b4 41ba
000001b0: c70b d1ba 0e42 9cbc 51a3 98ba 2718 5239
000001c0: 6950 45bd 4268 c3bc 867e e73d 39a7 c73b
000001d0: f906 d73b c83e 953d 06ae 4fbb b348 32bd
000001e0: 9a55 7abd 71f6 ff3c a285 fe3d 10e0 f63c
000001f0: 5f15 aeb9 171d c2bc 89bc a4ba 5d88 4939
00000200: 2053 803d f07e 0abe 5fab bfbc 660d 43bd
00000210: d913 fdbd b815 7dbc bfce e73d 1d91 993d
00000220: 8edd 2639 452f fd39 e34a 273b 1140 8b3d
00000230: d3eb 673e 0356 b93c 9d93 4bbb b23d 5d3c
00000240: c972 853b 691e ab3c 17fe 91bb 6052 2e3e
00000250: fed2 073d d333 643b f1d4 cf3d 65a4 01bd
00000260: 45f6 5ebc b749 a7bd a0f1 a7b7 ddfd 6839
00000270: 4e1d d23b 5918 a53c 9aed 4c3e 2345 28bd
00000280: 53b4 2c3d 853b 2abd 278b 09bc 075e 593a
00000290: aa32 8fbd c42b c33b 4e78 963c 0672 253c
000002a0: 83a2 c93c 4fe6 b03d f358 c2bd e7b7 45ba
000002b0: 28c8 0ebd d176 5a3c 84af 293b 39ee 4c3b
000002c0: b82c 483b e3fa 343d 89ab 033b 0732 b53d
000002d0: febe 60bc 79dd cdbc d922 4b3e e2c4 823c
000002e0: b844 c8be 241f 383c 4036 dc3d 6291 f53d
000002f0: 2bb3 3dbd fe40 47be d54c 9f3d 87df 043e
00000300: 1d93 e53c 83be d0bb a994 8dbe af35 5dbd
00000310: 77e0 9f3d b89e dd3b 4ff3 94bc d9d5 c53c
00000320: 60d5 983d 8689 1d3d c817 fb3d 478e 823d
00000330: bedd 6c3d 7549 3d3d 60e5 3ebd a702 b83b
00000340: 42c2 8cbd da37 efbd 0de1 4c3b d2c5 ab3a
00000350: 5632 003a 052b b53c 1d95 0d3b a2ad 213d
00000360: f0f0 93bc 3401 a5bb 9e6f 4a3e d5fe b63a
00000370: b55c 713d 2523 ad3c f992 7a3c 6536 6b3d
00000380: 1e12 cb3d 0a2e 833b ecd2 513b 6c30 4c3d
00000390: 1992 a63d 0b2a 8c3c 48d0 ccba a9ad f83b
000003a0: 6b84 17bd 4e77 463e d8b1 933d dbea e53c
000003b0: 504f 893e d5e8 b7ba 1d98 cbbc 2725 5d3c
000003c0: ccb3 273d e09d 32bd 12dd 54bd bd93 4bbc
000003d0: 50f8 1dba 7f3d 363c d997 9e3d 3682 2d3e
000003e0: d5f4 053d 0620 ac3d 4413 e7ba 2cd5 8d3d
000003f0: 1f96 87bc 7bc2 b33d 66fc 553d 6cd8 a63d
